src/lib/output/full_train/model.pth (torch, 536833 bytes, 109 tensors)

conv_final.weight f4 [1, 8, 1, 1]
0	0x3fd811f5	1.688048
1	0x3fb272bf	1.3941268
2	0xbfcc187f	-1.5944976
3	0x3fb59421	1.418583
4	0x3febc59a	1.8419678
5	0xbf87e6ec	-1.0617347
6	0x3fc15f21	1.5107156
7	0x3fb1aef4	1.3881516

down_blocks.0.conv1.weight f4 [8, 3, 3, 3]
0	0xbdf02b4e	-0.1172701
1	0xbd9a8701	-0.07545281
2	0xbbd13d7e	-0.0063855043
3	0xbc83bda6	-0.016081642
4	0x3c82644e	0.01591697
5	0xbb714943	-0.003681735
6	0x3dbbbf32	0.09167327
7	0xbe0b9771	-0.13631989
8	0xbd0d1a08	-0.034448653
9	0x3e0105ca	0.12599865
10	0x3e1357c5	0.1438895
11	0xbdab9231	-0.08377493
12	0x3d235dc4	0.039884344
13	0x3e6f7b25	0.2338682
14	0xbe43ad68	-0.19109118
15	0x3e8c0919	0.2735069
16	0x3df70292	0.12061037
17	0xbdfbbe54	-0.122921616
18	0x3dc53bbd	0.09630535
19	0xbbff8c65	-0.0077987188
20	0xbd36a4d6	-0.044590794
21	0x3e6c3daf	0.23070405
22	0x3e1a490a	0.15066925
23	0x3e54b419	0.20771827
24	0xbd80f0a7	-0.06295901
25	0x3e3f9ae0	0.18711424
26	0xbe31c80d	-0.1736147
27	0xbdd7b6ad	-0.105328895
28	0x3e7c5fe1	0.2464595
29	0x3e289b53	0.16465501
30	0xbbb10b16	-0.005402933
31	0x3d8a9f02	0.067686096
32	0x3d4301ea	0.047609247
33	0x3d1e410e	0.03863626
34	0xbe4a1af5	-0.19736846
35	0xbe691f65	-0.22765882
36	0xbd95911b	-0.07303067
37	0x3e7593dc	0.23982185
38	0x3e2dd3b8	0.16975296
39	0xbe34df54	-0.17663318
40	0x3da692fe	0.08133505
41	0x3df73375	0.120703615
42	0xbe34e518	-0.17665517
43	0x3e0da0d2	0.1383088
44	0x3e43c1ad	0.1911685
45	0x3bab5356	0.0052284403
46	0xbe5e3018	-0.21698034
47	0xbd0d3bce	-0.034480862
48	0xbe84b155	-0.25916544
49	0x3df9dc0c	0.12200174
50	0x3e4472a8	0.19184363
51	0xbe2244bc	-0.15846533
52	0x3d71cc29	0.059032593
53	0xbe86987b	-0.26288208
54	0x3c85c0fd	0.016327376
55	0xbce5f34f	-0.02807012
56	0x3e5a249f	0.21303032
57	0xbe2d994e	-0.16953012
58	0xbd9b2191	-0.07574762
59	0x3e3c8b59	0.18412532
60	0xbd076fe6	-0.0330657
61	0xbd4de158	-0.050263733
62	0xbe68d39d	-0.22736974
63	0xbdf73ec2	-0.12072517
64	0x3e2bd464	0.1678024
65	0xbe211f2e	-0.1573455
66	0xbd2374ab	-0.039906185
67	0x3ed7aa36	0.42122048
68	0x3e476cd3	0.19475107
69	0x3d84162f	0.06449544
70	0xbd31baf7	-0.043391194
71	0xbce1746c	-0.027521335
72	0x3d4d48bd	0.050118197
73	0x3dcc409d	0.099732615
74	0xbd76ac77	-0.06022307
75	0x3e9f0726	0.3106014
76	0x3e924393	0.2856718
77	0xbe44533b	-0.19172375
78	0x3e52c5f4	0.20583326
79	0xbe3fcd2c	-0.1873061
80	0xbc5300a7	-0.0128785735
81	0xbd6bb6cf	-0.057547387
82	0xbb4b6c7c	-0.0031040004
83	0x3e9244ed	0.2856821
84	0x3b371936	0.002793861
85	0xbd16864e	-0.036749177
86	0x3e1e2dbe	0.15447137
87	0xbedbbb73	-0.4291645
88	0xbe967cd9	-0.29392126
89	0x3c56babd	0.013106045
90	0x3daee683	0.0854006
91	0x3c3d64db	0.01155969
92	0x3ac77c9b	0.001521963
93	0xbdd36720	-0.10322404
94	0x3e25b915	0.16183884
95	0xbc8de339	-0.017320262
96	0xbe8b4e69	-0.2720826
97	0xbcedba41	-0.029019477
98	0xbe19c1fd	-0.15015407
99	0x3c2ff8b0	0.010740444
100	0xbbedcd41	-0.007257134
101	0xbb88e8a3	-0.004178123
102	0xbe8a328a	-0.26991683
103	0x3e2d9e79	0.16954984
104	0xbcf550bf	-0.02994573
105	0xbe7c7f3b	-0.2465791
106	0x3e3cb964	0.18430096
107	0x3d0b5020	0.03401196
108	0xbd3b5d2d	-0.045743156
109	0x3d9ef3d1	0.07761348
110	0xbc812257	-0.015763445
111	0xbe89debd	-0.26927748
112	0x3d114fd3	0.035476517
113	0x398b86bc	0.0002661253
114	0x3e2a6cb1	0.16643025
115	0xbe949ec0	-0.29027367
116	0xbd8bd41c	-0.06827566
117	0xbe4891cf	-0.19586872
118	0xbdf31bb2	-0.11870517
119	0x3e0e7b88	0.13914311
120	0x3db9f3bb	0.09079691
121	0x3e3e3f32	0.18578795
122	0xbe3be8a1	-0.1835046
123	0xbe6dd89a	-0.23227158
124	0x3ba0c751	0.004906573
125	0xbd9c5fbd	-0.07635448
126	0x3c705b85	0.014670257
127	0x3dc4971b	0.095991336
128	0xbe679484	-0.22615248
129	0x3bb1252f	0.005406044
130	0xbe274914	-0.16336471
131	0xbd9cd8c7	-0.076585345
132	0x3e882b54	0.26595557
133	0x3e2de9c0	0.169837
134	0x3e21796b	0.15768974
135	0xbe66284a	-0.22476307
136	0xbcf46d9c	-0.029837422
137	0xbb68ab04	-0.0035502324
138	0x3dbc8272	0.09204568
139	0xbdbd3387	-0.09238344
140	0x3dea0ea9	0.114285775
141	0x3e3e7185	0.18597992
142	0xbcf52438	-0.029924497
143	0xbe377010	-0.17913842
144	0xbcc7d7a9	-0.024394827
145	0xbe2a11ce	-0.16608354
146	0x3d365070	0.044510305
147	0x3e4d34a3	0.2003961
148	0x3d1dd7ef	0.03853601
149	0x3b9c07aa	0.004761656
150	0xbea89f2e	-0.32933944
151	0xbe84d273	-0.2594181
152	0xbe1c014a	-0.15234867
153	0xbe429dc9	-0.19005503
154	0xbdafd263	-0.0858505
155	0xbe7aad71	-0.24480225
156	0x3e2b1cee	0.16710255
157	0x3dae94a7	0.08524447
158	0x3d762c30	0.060100734
159	0x3e475a1d	0.19467969
160	0x3d573d91	0.05254895
161	0x3e322bd2	0.17399529
162	0xbd8c40a7	-0.06848269
163	0x3e0129b3	0.12613563
164	0xbe955ee1	-0.2917395
165	0xbbc3286e	-0.0059557473
166	0xbb8032cb	-0.003912305
167	0xbf04c936	-0.51869524
168	0x3dbf9013	0.09353652
169	0x3d0009cd	0.031259347
170	0xbeea4ae1	-0.45760253
171	0x3d73fd69	0.059567843
172	0x3e88f9bf	0.2675304
173	0xbe9791d9	-0.2960346
174	0x3e9220a7	0.28540537
175	0xbe5e942e	-0.21736214
176	0xbe3d8d26	-0.18510875
177	0xbdf27644	-0.11838964
178	0x3c6d425a	0.0144811515
179	0xbe926c61	-0.28598312
180	0x3d5e90a2	0.05433715
181	0x3dfc2021	0.123108156
182	0xbe05dce3	-0.13072543
183	0x3c77d78b	0.015127073
184	0xbd8b758e	-0.06809531
185	0xbaca0bc1	-0.001541488
186	0xbd76bc6b	-0.060238283
187	0xbe663db3	-0.22484474
188	0xbd231f4a	-0.03982476
189	0xbe89ac00	-0.26889038
190	0x3cc577b8	0.024104938
191	0xbaea57df	-0.0017878971
192	0xbe2f50ac	-0.17120618
193	0x3e109a9a	0.14121476
194	0xbd5af581	-0.053456787
195	0x3d82654e	0.063669786
196	0x3c42b1ca	0.0118832085
197	0x3d492145	0.049103994
198	0x3ced795b	0.02898853
199	0x3eb48182	0.35255057
200	0x3e7bcf9b	0.24590914
201	0x3e1c0d83	0.1523953
202	0x3e68f7d1	0.22750784
203	0x3db4d300	0.088293076
204	0xbeb595cb	-0.35465845
205	0xbe3e0629	-0.18557037
206	0xbe2370f6	-0.1596106
207	0x3e002bc9	0.12516703
208	0x3e61afd4	0.2203973
209	0x3bcdb474	0.006277615
210	0xbe85bf3a	-0.26122457
211	0x3e221413	0.1582797
212	0x3e1a1754	0.15047961
213	0xbc11eef0	-0.008907065
214	0x3e06637d	0.1312389
215	0xbbc4f74d	-0.006010926

down_blocks.0.conv1.bias f4 [8]
0	0xbe829bbd	-0.25509444
1	0x3db43355	0.08798853
2	0xbd9d8226	-0.076908395
3	0xbc984d94	-0.01859168
4	0x3c7e98bf	0.015539347
5	0xbb9a0a74	-0.004700953
6	0x3d73d8b8	0.05953285
7	0x3e568ceb	0.20952193

down_blocks.0.conv2.weight f4 [8, 8, 3, 3]
0	0xbe928fc5	-0.28625312
1	0xbe8a9dd9	-0.27073553
2	0xbd35f5c3	-0.04442383
3	0xbe75f0dc	-0.24017662
4	0xbe0a92a8	-0.13532507
5	0xbe675470	-0.22590804
6	0xbef16886	-0.47150058
7	0xbe848d6f	-0.25889155
8	0xbe994d05	-0.29941574
9	0x3de0c7b0	0.10975587
10	0xbd7aa618	-0.061193556
11	0x3d00d674	0.03145452
12	0xbceaab05	-0.028646002
13	0xbdb36f6b	-0.08761486
14	0xbd8bf61a	-0.068340495
15	0xbca3c1fe	-0.019989964
16	0x3d7ee74d	0.062232304
17	0xbe3415a8	-0.17586386
18	0xbe64d6ef	-0.22347616
19	0xbd34c94d	-0.044137288
20	0xbdd41071	-0.103546984
21	0xbd28b227	-0.041185524
22	0x3e0a79c8	0.13523018
23	0xbe224055	-0.15844853
24	0xbc0523b6	-0.00812619
25	0x3ddda2ab	0.10822042
26	0xbcc075ee	-0.023493733
27	0xbd4a21c0	-0.049348593
28	0xbda5f872	-0.08104028
29	0x3e192fd1	0.14959647
30	0xbdbe210c	-0.09283647
31	0x3b0fe616	0.002195721
32	0xbe95ba5c	-0.29243743
33	0x3a02e5a0	0.0004993323
34	0xbdb75808	-0.089523375
35	0xbdaa01ca	-0.083011225
36	0xbda502c0	-0.08057165
37	0xbda272c3	-0.07932045
38	0xbd91c10b	-0.07116898
39	0xbec0f219	-0.37684706
40	0xbe0d288b	-0.13784997
41	0xbe83cdde	-0.25743002
42	0xbe99ef66	-0.3006546
43	0xbd9e486f	-0.07728659
44	0xbe950a0d	-0.2910923
45	0xbe76df00	-0.24108505
46	0xbc9a1934	-0.018810846
47	0x3d8828f0	0.06648433
48	0x3c48771c	0.012235429
49	0xbe0c9bc3	-0.13731293
50	0x3dc9cd9d	0.09853671
51	0xbe7612b9	-0.2403058
52	0xbe50dd28	-0.20396864
53	0xbe5a967a	-0.21346465
54	0xbd9cf358	-0.07663602
55	0xbe4e035c	-0.20118469
56	0xbe95c2bc	-0.29250133
57	0xbeaf8897	-0.34283897
58	0xbe1d1008	-0.15338147
59	0xbd3f3cb7	-0.04668876
60	0xbe99356f	-0.2992358
61	0xba45b2a0	-0.0007541571
62	0xbe1f4b8a	-0.1555616
63	0xbe2b16d2	-0.16707924
64	0x3d2e9eea	0.04263202
65	0x3d5cfe53	0.05395348
66	0xbce19ef3	-0.027541613
67	0xbd615978	-0.055016965
68	0xbdd5db10	-0.104421735
69	0xbd8ce278	-0.06879133
70	0xbde88ab9	-0.11354584
71	0x3da85708	0.08219725
72	0x3e433a6f	0.1906526
73	0xbda899df	-0.082324736
74	0xbe28dfff	-0.16491698
75	0x3db80ded	0.08987031
76	0x3aa18cab	0.0012325248
77	0x3e545a83	0.20737652
78	0x3e8887c4	0.2666608
79	0x3e633c1a	0.22190896
80	0x3e32bc0b	0.17454545
81	0xbe85446e	-0.2602877
82	0xbd7c12a5	-0.06154122
83	0x3d04e190	0.032441676
84	0x3ddd51e3	0.10806634
85	0x3d0f34c0	0.034962416
86	0x3dc78ba0	0.09743428
87	0xbe84a766	-0.25908965
88	0xbe1bbdbb	-0.15209095
89	0xbdd83466	-0.10556869
90	0x3e6a258d	0.22865887
91	0x3e4c8c84	0.19975477
92	0x3d4cfac2	0.05004383
93	0xbd25ca8c	-0.040476367
94	0xbe00c043	-0.12573342
95	0xbdc38477	-0.0954675
96	0x3e15ccad	0.14628859
97	0x3e05a3e3	0.13050799
98	0xbd701222	-0.058611043
99	0x3d6c2a75	0.057657678
100	0x3d22abd3	0.039714646
101	0x3dfb0c20	0.12258172
102	0xbda6d76b	-0.081465565
103	0x3e078751	0.13235213
104	0x3ead39d9	0.33833197
105	0x3e0c453e	0.13698289
106	0x3d0c499f	0.034249898
107	0xbb476507	-0.0030425207
108	0xbe5b447b	-0.21412842
109	0xbde28e9b	-0.11062356
110	0x3d25d05c	0.04048191
111	0xbdcc0284	-0.09961417
112	0x3bc15300	0.005899787
113	0x3d3b9d72	0.04580445
114	0x3e5778f1	0.21042229
115	0x3e510fdc	0.20416206
116	0xbc5d1c8c	-0.013495576
117	0x3e173046	0.14764509
118	0x3e103cdd	0.14085717
119	0x3d0f945e	0.035053603
120	0x3dccd6cd	0.100019075
121	0x3e3287b5	0.1743458
122	0xbde4054f	-0.11133825
123	0x3d87f6eb	0.06638893
124	0x3d80d2be	0.06290196
125	0xbe5aeff6	-0.213806
126	0xbe68dc2d	-0.2274024
127	0xbe578e0c	-0.2105028
128	0x3e056527	0.13026868
129	0xbe6f0674	-0.23342305
130	0x3de16395	0.11005322
131	0xbe03c968	-0.12869799
132	0xbe5062ad	-0.20350142
133	0x3de9b448	0.11411339
134	0x3d92ec6e	0.07174002
135	0x3e082772	0.13296297
136	0xbdab78f5	-0.0837268
137	0xbddfcadc	-0.10927364
138	0xbde7dcd2	-0.11321415
139	0x3d9f8d87	0.07790666
140	0x3d716801	0.058937076
141	0x3dc1a835	0.09455911
142	0xbe65f6bc	-0.22457403
143	0xbdde6ca6	-0.10860567
144	0x3e073884	0.13205153
145	0x3d63e340	0.055636644
146	0x3d59fd3c	0.05322002
147	0x3ca22a2a	0.019795496
148	0x3e1dea42	0.15421394
149	0x3e907ec2	0.2822171
150	0x3debf438	0.115211904
151	0x3b298d06	0.002587141
152	0x3cd36bb6	0.025808197
153	0xbe825395	-0.25454393
154	0xbe028181	-0.12744714
155	0xbeb498e3	-0.35272893
156	0x3e1706df	0.14748715
157	0xbe38e245	-0.18055065
158	0xbe778a8f	-0.2417395
159	0x3d4b38bc	0.049614653
160	0xbdc2fb5a	-0.09520598
161	0xbd5e71b3	-0.05430765
162	0xbe315bbf	-0.17320155
163	0x3cd761be	0.026291724
164	0x3e3958f7	0.18100344
165	0x3e904511	0.28177693
166	0xbb2d3ec9	-0.0026435128
167	0x3e1bce72	0.15215471
168	0xbd5d8ec7	-0.05409124
169	0xbcc94c37	-0.024572475
170	0x3e0dab7b	0.13834946
171	0x3da7940f	0.08182537
172	0xbd49d675	-0.049276788
173	0xbe753b89	-0.23948492
174	0xbdab6312	-0.083685055
175	0x3e8b5a20	0.27217197
176	0x3ca77529	0.020441609
177	0xbd848a7b	-0.064717256
178	0x3d76c0b0	0.060242355
179	0x3dc0ad3e	0.09408043
180	0x3d996de2	0.074916616
181	0xbda7a1e7	-0.08185177
182	0xbcae8de7	-0.021307899
183	0xbe14e482	-0.14540294
184	0x3dd96ace	0.106160745
185	0x3db05c28	0.086113274
186	0x3e0084d9	0.12550677
187	0x3de2c967	0.11073571
188	0x3d34631e	0.044039838
189	0x3dc6f383	0.09714415
190	0xbcbfee0a	-0.023428936
191	0x3da93697	0.08262365
192	0x3d748b4e	0.059703164
193	0x3daf42d4	0.08557668
194	0x3e4c5343	0.19953637
195	0x3dad4fef	0.08462512
196	0xbe3cbdca	-0.18431774
197	0x3db7c610	0.08973324
198	0xbde5619d	-0.11200259
199	0xbe97d82e	-0.2965712
200	0x3d16d8fb	0.036828022
201	0x3bbb7630	0.005720876
202	0xbe2515ff	-0.16121672
203	0xbe577c80	-0.21043587
204	0x3d9b5eec	0.07586464
205	0xbc481f3e	-0.01221448
206	0xbd5052a8	-0.050860077
207	0xbe467930	-0.19382167
208	0xbe064784	-0.13113219
209	0xbe3d85a0	-0.18508005
210	0x3e565ead	0.20934553
211	0x3e625bd0	0.22105336
212	0xbd06ad37	-0.032880034
213	0x3e1feb41	0.15617086
214	0x3e7f0283	0.24903302
215	0xbcb51350	-0.022103935
216	0xbe6c38eb	-0.23068587
217	0xbd3a3fff	-0.045471188
218	0xbd1200e8	-0.035645396
219	0xbd1feb38	-0.03904268
220	0xbceebcf8	-0.029142842
221	0x3e916614	0.28398192
222	0x3d187d5e	0.037228934
223	0x3ddd45bd	0.10804317
224	0x3e387bf9	0.18016042
225	0xbda03328	-0.07822257
226	0xbd1dab50	-0.038493454
227	0x3d8718e3	0.06596544
228	0xbbdd2d61	-0.0067497944
229	0x3d85c54d	0.06531773
230	0xbe2da435	-0.16957171
231	0xbc9e0d79	-0.019293534
232	0x3e6104b8	0.21974456
233	0x3d849f4f	0.06475698
234	0xbe48058e	-0.19533369
235	0xbe409543	-0.18806939
236	0xbe488b07	-0.19584285
237	0xbe57987b	-0.2105426
238	0x3d106840	0.03525567
239	0x3e84b3a8	0.25918317
240	0x3d93994c	0.072069734
241	0x3ea80292	0.3281446
242	0x3df967e3	0.12178018
243	0xbc566f4e	-0.013088061
244	0xbda8392e	-0.08214031
245	0x3ea0af86	0.31383914
246	0xbe37e0f1	-0.17956902
247	0xbea8bd7a	-0.3295706
248	0xbe133569	-0.14375843
249	0xbd875665	-0.06608275
250	0xbde56b95	-0.1120216
251	0x3d058208	0.03259471
252	0xbdbe9988	-0.093066275
253	0x3df4adf4	0.119472414
254	0x3e30238d	0.17201062
255	0xbc275068	-0.010212041

down_blocks.0.conv2.bias f4 [8]
0	0x3e788846	0.24270734
1	0xbc96af9f	-0.01839429
2	0xbeb16feb	-0.346557
3	0xbd036981	-0.03208304
4	0x3dc24a1a	0.0948679
5	0xbdbf17f8	-0.093307436
6	0xbdf2801a	-0.1184084
7	0xbdf74422	-0.12073542

down_blocks.0.norm1.weight f4 [8]
0	0x3f7eb7de	0.9949931
1	0x3f8534e7	1.040677
2	0x3f85df93	1.0458854
3	0x3f5a09f1	0.8517142
4	0x3f75fa36	0.96084917
5	0x3f627f16	0.8847517
6	0x3f77086a	0.96497214
7	0x3f8b1dda	1.0868485

down_blocks.0.norm1.bias f4 [8]
0	0xbe9923a4	-0.29910004
1	0x3e2f6556	0.171285
2	0xbe5c29f7	-0.21500383
3	0x3d5776ab	0.052603405
4	0xbeca5ea4	-0.3952533
5	0xbe803ee0	-0.2504797
6	0xbcb9959d	-0.022654349
7	0xbd94eba3	-0.07271507

down_blocks.0.norm1.running_mean f4 [8]
0	0x3c9878ad	0.01861223
1	0x3e1017d9	0.14071597
2	0x3dbae01b	0.09124776
3	0x3a71080a	0.00091946183
4	0x3a55efad	0.00081610197
5	0x39056ee9	0.00012725186
6	0x3b6daf53	0.0036267831
7	0x3eab95c1	0.3351269

down_blocks.0.norm1.running_var f4 [8]
0	0x3b8992e8	0.004198421
1	0x3b592b14	0.0033137249
2	0x3c4fd21f	0.012684374
3	0x3937f9db	0.00017545318
4	0x3734624a	1.0751721e-05
5	0x372d8a6c	1.0343832e-05
6	0x396be1d6	0.00022495477
7	0x3c441419	0.011967682

down_blocks.0.norm2.weight f4 [8]
0	0x3f93b89e	1.1540716
1	0x3f3e0187	0.7422108
2	0x3f77b106	0.9675449
3	0x3f61d01a	0.8820816
4	0x3f60f925	0.87880164
5	0x3f53d2ed	0.8274372
6	0x3f8354e1	1.0260278
7	0x3f84e00d	1.0380875

down_blocks.0.norm2.bias f4 [8]
0	0xbed020f3	-0.40650138
1	0xbe9fee0d	-0.31236306
2	0xbf06ac2a	-0.5260645
3	0xbdda1747	-0.10648971
4	0x3e8129d3	0.25227222
5	0xbeda73f3	-0.42666587
6	0xbee77cea	-0.4521249
7	0x3ef266ae	0.47343963

down_blocks.0.norm2.running_mean f4 [8]
0	0x4029bc98	2.6521358
1	0x3e5b2c0b	0.2140352
2	0x3e8170e2	0.25281435
3	0x3e9072aa	0.28212482
4	0x3f622573	0.8833839
5	0x3efa7940	0.4892063
6	0x3eb14671	0.34624055
7	0x3f532bfc	0.8248899

down_blocks.0.norm2.running_var f4 [8]
0	0x4000715a	2.0069184
1	0x3f62a0e1	0.8852673
2	0x3faf1c3b	1.368049
3	0x3ef911d4	0.48646414
4	0x3fc8e2c3	1.5694202
5	0x3fcaef82	1.5854342
6	0x3ea5472d	0.32280865
7	0x3f931677	1.1491231

down_blocks.1.conv1.weight f4 [16, 8, 3, 3]
0	0x3d46ee9b	0.048567396
1	0xbda29e74	-0.07940379
2	0xbe2853f1	-0.16438271
3	0xbd9894c7	-0.07450252
4	0xbc8516cf	-0.016246228
5	0xbe5c1f09	-0.21496214
6	0xbdf9bfec	-0.12194809
7	0x3db0bb2e	0.08629452
8	0xbc89ad17	-0.016806168
9	0xbe72cab3	-0.23710136
10	0xbe2e7e90	-0.17040467
11	0x3c8e4fb6	0.017371994
12	0xbe0de538	-0.13856971
13	0xbe96c985	-0.29450622
14	0xbcda42d4	-0.026643194
15	0xbe6dfa76	-0.23240075
16	0x3bee9c83	0.0072818412
17	0xbc831259	-0.01599996
18	0xbaf65d10	-0.0018796045
19	0xbeaa2d85	-0.33237854
20	0xbea60db3	-0.32432327
21	0xbde17391	-0.11008371
22	0xbd4791bf	-0.04872298
23	0xbe7fc7b6	-0.24978527
24	0xbe9f5678	-0.31120658
25	0xbea38ddc	-0.31944168
26	0xbe134b36	-0.1438416
27	0xbe0b91e8	-0.13629878
28	0x3d563851	0.0522998
29	0x3d454aec	0.048167154
30	0xbd03fe4d	-0.032224942
31	0xbd94eed5	-0.07272116
32	0x3db480fd	0.08813665
33	0x3bbd218d	0.005771822
34	0xbe280e31	-0.16411664
35	0xbe42a35b	-0.19007628
36	0xbcbf5bc2	-0.023359183
37	0x3ce6d510	0.028177768
38	0x3e0cceef	0.13750814
39	0x3e0c3dc6	0.1369544
40	0xbd6aab62	-0.05729235
41	0xbc0dfcc2	-0.008666219
42	0x3cb915ae	0.022593345
43	0xbdcbc019	-0.09948749
44	0x3d882505	0.06647686
45	0xbd055ca4	-0.032559052
46	0xbd1ecec2	-0.0387714
47	0xbdd8b3f9	-0.10581202
48	0xbdc3733b	-0.09543463
49	0xbdee02ce	-0.11621629
50	0x3d931c19	0.071830936
51	0xbe3fdbf4	-0.18736249
52	0xbd65e55e	-0.056126945
53	0xbd94aee5	-0.07259921
54	0xbbf043db	-0.0073323078
55	0xbe2178aa	-0.15768686
56	0x3dab4393	0.08362498
57	0x3e6a1989	0.22861303
58	0xbe00c463	-0.12574916
59	0xbe298134	-0.16553193
60	0xbe32d23d	-0.17463012
61	0xbe2b3b1f	-0.16721772
62	0xba9decb3	-0.0012048691
63	0xbd2dfdf3	-0.042478513
64	0x3e3059a5	0.17221697
65	0x3c9358b3	0.017986631
66	0xbe031830	-0.12802196
67	0x3dbb9834	0.0915989
68	0xbc69cd45	-0.0142701315
69	0x3da16430	0.078804374
70	0xbd803056	-0.06259219
71	0x3e04a14b	0.12952153
72	0xbd54310c	-0.051804587
73	0x3db1e98a	0.08687122
74	0x3d15945e	0.036518447
75	0xbd5f38b0	-0.05449742
76	0xbdee10d3	-0.11624303
77	0xbd369e4a	-0.04458455
78	0xbdd85d90	-0.10564721
79	0xbd273868	-0.040825278
80	0xbde17eec	-0.110105366
81	0x3e4a4478	0.19752681
82	0x3d5c617a	0.0538039
83	0x3beaecfb	0.0071693636
84	0x3d75050b	0.059819262
85	0x3de339b2	0.11094989
86	0x3d0b137a	0.03395412
87	0xbdf83d36	-0.1212105
88	0x3d87d764	0.066328794
89	0xbe3a9f6d	-0.18224879
90	0x3dbddce0	0.09270644
91	0x3b4673d9	0.0030281453
92	0xbda4a9a7	-0.08040171
93	0x3e3097a1	0.17245342
94	0xbd096f08	-0.033553153
95	0xbca34b21	-0.019933285
96	0x39eebb08	0.00045534247
97	0x3e5c42c7	0.21509849
98	0xbe3cbc34	-0.18431169
99	0x3d8b6c72	0.06807794
100	0xbde13e5b	-0.109982215
101	0xbdea1b0d	-0.11430941
102	0x3e51c2dd	0.2048449
103	0xbccadd08	-0.024763599
104	0xbdc1f92e	-0.094713554
105	0xbdaee1bc	-0.08539149
106	0xbd2e32f8	-0.042529076
107	0xbded40c9	-0.115846224
108	0xbd8c4e4d	-0.06850872
109	0x3dd4d5fd	0.103923775
110	0x3c91c1c3	0.017792588
111	0x3e7b914a	0.24567142
112	0xbd61ebbd	-0.05515646
113	0xbde7938e	-0.11307441
114	0xbd70121d	-0.058611024
115	0x3cf09b15	0.029370824
116	0x3d8b59bc	0.06804225
117	0xbe00d0fb	-0.1257972
118	0x3c62e46e	0.013848407
119	0xbc0c9041	-0.008579315
120	0x3d9ab802	0.07554628
121	0xbcd0e520	-0.02549988
122	0xbdc94404	-0.09827426
123	0x3d2c70e2	0.04209984
124	0x3b6cf04b	0.0036153968
125	0xbd56a2fa	-0.05240152
126	0x3e0eaa99	0.13932265
127	0x3d8d9728	0.069135964
128	0xbdd7bd2b	-0.10534128
129	0x3dc08499	0.09400291
130	0x3d1d3a04	0.038385406
131	0xbd9126f2	-0.07087506
132	0x3e5353f1	0.2063749
133	0xbc8c55d8	-0.017130777
134	0xbdacf6cc	-0.0844551
135	0x3e5aa932	0.21353605
136	0xbdbc9a28	-0.092090905
137	0xbe7e8177	-0.24854074
138	0xbdb8c490	-0.09021866
139	0xbe67c4ec	-0.22633713
140	0xbe9375d4	-0.28800833
141	0xbe639ec3	-0.22228532
142	0xbe8db793	-0.2767912
143	0xbe74141a	-0.23835793
144	0xbd3e2e03	-0.0464306
145	0x3d854fb9	0.065093465
146	0x3e437f27	0.19091474
147	0x3d87c422	0.06629206
148	0x3eb4f8bf	0.35346028
149	0x3e8eaa77	0.2786443
150	0x3ea44dd7	0.32090637
151	0x3ddcfa5c	0.1078994
152	0x3e079aa8	0.1324259
153	0x3e1967d4	0.14981014
154	0x3d3dd1bd	0.0463426
155	0xbdff3e43	-0.12463047
156	0x3d231b62	0.039821036
157	0xbd82d276	-0.063877985
158	0x3e0af671	0.13570572
159	0x3dc0194c	0.09379825
160	0x3df262a6	0.11835222
161	0x3d3fa6bd	0.046789873
162	0x3e41673e	0.1888704
163	0xbd303bed	-0.0430259
164	0xbc0bbbc4	-0.0085286535
165	0x3e49c457	0.19703804
166	0x3e447d4c	0.19188422
167	0xbcfa9035	-0.030586341
168	0x3e02da8b	0.1277868
169	0x3e7bc5e8	0.24587214
170	0x3db43cfc	0.08800694
171	0xbe194e2c	-0.14971226
172	0xbd195c5d	-0.0374416
173	0x3d97e159	0.074160285
174	0x3e090c05	0.13383491
175	0xbcb161e1	-0.021653118
176	0xbd192b82	-0.037395008
177	0x3bdbf4bd	0.0067125247
178	0xba9ba0c5	-0.0011873475
179	0xbde0053a	-0.10938497
180	0x3d74c3bb	0.059756976
181	0xbdee1271	-0.11624611
182	0x3c39918f	0.011326208
183	0x3d33b656	0.04387506
184	0xbe05269a	-0.13003007
185	0xbe575d1a	-0.21031609
186	0xbe17bbc3	-0.14817719
187	0xbded6179	-0.11590857
188	0xbe4acb02	-0.19804004
189	0xbd765246	-0.060137056
190	0xbd8c6aa9	-0.06856281
191	0x3d6a641a	0.05722437
192	0x3e5c7aaf	0.21531175
193	0x3dfac982	0.12245466
194	0x3dcb5360	0.09928012
195	0x3d658e14	0.0560437
196	0x3ae3e10d	0.0017385796
197	0x3d98cbe5	0.07460765
198	0xbe55b389	-0.20869268
199	0x3db801ed	0.08984742
200	0x3d51c9da	0.05121789
201	0xbe0d7ec2	-0.13817886
202	0xbe08b793	-0.13351278
203	0xbc3d1d39	-0.011542612
204	0x3dc4009f	0.09570431
205	0x3dfe5304	0.12418178
206	0x3d1fb329	0.03898922
207	0xbe40a06d	-0.18811198
208	0x3c5e7f24	0.013580117
209	0xbe9a1776	-0.30096024
210	0xbd404b22	-0.046946652
211	0xbe74642e	-0.2386634
212	0xbe87a545	-0.26493278
213	0xbe47462c	-0.19460362
214	0xbe6bb5a3	-0.23018508
215	0xbddfd1eb	-0.109287106
216	0xbd99acb3	-0.07503643
217	0x3b29ebbd	0.0025927864
218	0xbdfb9835	-0.122848906
219	0x3e22e62f	0.1590812
220	0x3c1fec3b	0.009760912
221	0x3da4f96f	0.08055388
222	0x3e747737	0.23873602
223	0xbd75b53f	-0.059987303
224	0x3e010a29	0.12601532
225	0xbd0d8db5	-0.03455897
226	0xbc311145	-0.01080734
227	0x3d73cd16	0.059521757
228	0xbe1a9e92	-0.15099552
229	0xbe39f868	-0.18161166
230	0x3cca0505	0.024660597
231	0xbe613437	-0.21992575
232	0x3db69692	0.08915438
233	0xbb9ff4f9	-0.004881498
234	0xbe305c81	-0.17222787
235	0x3d030370	0.0319857
236	0x3df0d686	0.11759667
237	0xbb9007e5	-0.0043954724
238	0x3be81b69	0.0070833457
239	0x3e04cc42	0.12968543
240	0xbe57c544	-0.21071345
241	0xbdc28eb0	-0.09499872
242	0x3e07599b	0.13217776
243	0x3d6546a6	0.05597558
244	0x3c1fb154	0.009746868
245	0x3e801793	0.25017986
246	0x3ce1238e	0.027482774
247	0xbd0e96f2	-0.03481192
248	0xbd0ec9bc	-0.034860358
249	0xbd22acf9	-0.03971574
250	0x3e1a683c	0.15078825
251	0x3c48d36a	0.012257436
252	0xbc8e3928	-0.017361239
253	0x3e5a718b	0.21332376
254	0x3c8e3c2f	0.017362682
255	0x3d8a97d9	0.06767244

down_blocks.1.conv1.bias f4 [16]
0	0x3e85ba5a	0.26118737
1	0xbd7d915c	-0.061906204
2	0xbeaacb6a	-0.33358318
3	0xbaf4691d	-0.0018647049
4	0xbde478c9	-0.111558504
5	0x3d8db06d	0.06918416
6	0xbe35e585	-0.17763336
7	0xbdc9a8be	-0.09846638
8	0xbe0dcc5f	-0.13847493
9	0xbd70132e	-0.05861204
10	0xbcd47244	-0.025933392
11	0xbd9de467	-0.0770958
12	0xbe1720ae	-0.1475856
13	0xbe081486	-0.13289079
14	0xbcc5e991	-0.024159225
15	0xbe2525cb	-0.16127698

down_blocks.1.conv2.weight f4 [16, 16, 3, 3]
0	0xbe2dfb33	-0.16990356
1	0xbe498327	-0.19678937
2	0x3d1af734	0.037833408
3	0xbe2c4cac	-0.16826123
4	0x3d0cc543	0.03436781
5	0xbd906360	-0.07050204
6	0xbe3868c1	-0.1800871
7	0x3d03635a	0.03207717
8	0xbdfe8de6	-0.12429409
9	0xbd5e1859	-0.05422244
10	0xbe06edf2	-0.13176706
11	0xbdbcc724	-0.092176706
12	0x3cbf4431	0.023347946
13	0xbe0424d3	-0.12904672
14	0xbd57247f	-0.05252504
15	0xbe1a5dbd	-0.15074821
16	0xbe2b4f1f	-0.16729401
17	0xbe546112	-0.20740154
18	0xbd790fa4	-0.06080593
19	0x3d9867e7	0.07441693
20	0xbdca3054	-0.09872499
21	0x3d3fc722	0.046820767
22	0x3d69c4b2	0.05707235
23	0xbd910007	-0.07080083
24	0x3d709dd0	0.05874425
25	0xbe20b6a5	-0.15694673
26	0x3d61c8ba	0.05512307
27	0x3dac946f	0.08426749
28	0x3d677640	0.056509256
29	0x3d570c46	0.05250194
30	0x3d798192	0.060914584
31	0x3da61c6a	0.08110888
32	0x3dd8ac6f	0.10579764
33	0x3dc5bf22	0.09655596
34	0xbd74b2cc	-0.059740826
35	0x3dc353ce	0.09537469
36	0xbddaebc3	-0.10689499
37	0x3e0b8e11	0.13628413
38	0x3e1f104a	0.15533558
39	0xbe24f923	-0.16110663
40	0x3c46a907	0.01212526
41	0xbc49eef7	-0.01232504
42	0xbcdfb49c	-0.027307801
43	0x3d625730	0.05525893
44	0x3d46e4b9	0.04855797
45	0x3dbd2277	0.09235089
46	0x3e556b78	0.20841777
47	0x3df90d5c	0.12160751
48	0xbd7d4aba	-0.061838843
49	0x3d6a4a63	0.057199847
50	0x3dd7f8f3	0.1054553
51	0x3d3d2904	0.046181694
52	0xbd8af43f	-0.067848675
53	0xbdceb6bb	-0.10093447
54	0xbe09d43c	-0.13459867
55	0xbccb6fff	-0.024833677
56	0xbdedd55f	-0.11612963
57	0xbd753b4e	-0.05987101
58	0xbe07491c	-0.13211483
59	0xbda602e5	-0.08106021
60	0xbdbed7d8	-0.09318513
61	0xbe24b71e	-0.16085479
62	0xbe5a069e	-0.21291587
63	0xbd286236	-0.041109286
64	0xbdfcee08	-0.12350088
65	0xbdac66f9	-0.08418078
66	0x3d04cba2	0.032420762
67	0xbe4f4470	-0.2024095
68	0x3d656147	0.056000974
69	0xbda01403	-0.07816317
70	0xbe6c8431	-0.23097302
71	0x3a739afe	0.000929281
72	0xbdb5ebce	-0.08882867
73	0x3d90cefd	0.0707073
74	0x3dfa401e	0.12219261
75	0xbd543f79	-0.051818345
76	0xbe289cce	-0.16466066
77	0xbe2c109e	-0.16803214
78	0x3ca710c6	0.02039374
79	0xbd17c79d	-0.0370556
80	0xbd4538f6	-0.048150025
81	0x3e6b180a	0.22958389
82	0x3d86b843	0.06578114
83	0x3e1af9b5	0.15134318
84	0xbd0bcf9c	-0.03413354
85	0x3e1d44ef	0.15358327
86	0x3da7494c	0.08168277
87	0xbcf2d789	-0.02964379
88	0xbcc0259d	-0.023455435
89	0xbd86fe56	-0.065914795
90	0x3cd3b2c9	0.025842087
91	0x3e8784df	0.2646856
92	0x3d7fa9fa	0.06241796
93	0x3e0d0342	0.13770774
94	0xbdbe98f9	-0.09306521
95	0xba2ca109	-0.00065852754
96	0xb98fcdff	-0.00027428564
97	0xbd5611fe	-0.052263252
98	0xbe505f98	-0.20348966
99	0x3d087043	0.033310186
100	0x3dc5ec18	0.09664172
101	0x3e80ffb2	0.2519508
102	0x3c0ff480	0.008786321
103	0x3d929cad	0.0715879
104	0x3e6d7f5f	0.2319312
105	0x3e0f26e1	0.13979675
106	0xbccbfa0d	-0.024899507
107	0x3dc9683d	0.09834335
108	0x3e5d868f	0.21633361
109	0x3e28f3f2	0.16499308
110	0x3e9bfd27	0.30466577
111	0xbd31e890	-0.04343468
112	0x3ca9c2ea	0.020722825
113	0x3e8408db	0.25788006
114	0x3db5556f	0.08854186
115	0x3dfc0623	0.12305858
116	0xbd6e67dc	-0.058204517
117	0xbcf5b994	-0.029995717
118	0x3c90d576	0.017679911
119	0x3dbfab34	0.09358826
120	0x3db28d30	0.08718336
121	0xbd91b6e6	-0.07114963
122	0xbd96f8f1	-0.073717006
123	0xbe5dff08	-0.21679318
124	0xbd0b5bac	-0.034022972
125	0x3dc87e3a	0.09789701
126	0xb98ae61e	-0.00026492862
127	0x3ddfde53	0.10931077
128	0x3e69a6a4	0.22817475
129	0xbd0ffc7b	-0.035152894
130	0xbc0be2c0	-0.008537948
131	0xbbe023b6	-0.0068401946
132	0x3d038f16	0.03211888
133	0x3d93078f	0.07179176
134	0x3d66ccb5	0.056347568
135	0x3e34e6d7	0.17666183
136	0x3dee8d0e	0.11647998
137	0x3e8fba6f	0.28071925
138	0x3d25cecf	0.04048043
139	0xbd4bc19a	-0.04974518
140	0x3c2d0d55	0.010562261
141	0xbdfca725	-0.12336568
142	0x3d652217	0.055940714
143	0xbd370d4d	-0.04469042
144	0xbd9ff0b8	-0.07809585
145	0x3dc18d34	0.094507605
146	0x3d94f4ee	0.07273279
147	0x3ce7ec1a	0.028310824
148	0x3cc604a4	0.024172135
149	0x3d9f2bff	0.077720635
150	0x3cbe6227	0.023240162
151	0x3cc933ed	0.024560893
152	0xbc363405	-0.011120801
153	0xbe1b5d97	-0.1517242
154	0x3d6b82a0	0.05749762
155	0xbdfcde29	-0.12347061
156	0x3c267b95	0.0101613
157	0x3d4e2e30	0.050337017
158	0x3dc4bc0f	0.09606182
159	0xbd0ebda6	-0.03484883
160	0x3e1a6bff	0.1508026
161	0x3ddfb537	0.10923236
162	0x3e5da006	0.21643075
163	0x3d5276fb	0.051383
164	0xbdac5923	-0.08415439
165	0x3d52d497	0.051472273
166	0x3e76771a	0.24068871
167	0x3c5d001f	0.013488798
168	0x3e4af548	0.1982013
169	0x3e7070d3	0.23480539
170	0x3e1d8030	0.15380931
171	0x3d66ea96	0.056376062
172	0xbe36a9aa	-0.17838159
173	0xbda3c9fc	-0.0799751
174	0x3d7dec1f	0.06199276
175	0x3d4dc894	0.050240114
176	0xbe6299ba	-0.22128955
177	0xbbfdb5b6	-0.007742609
178	0xbd811dcf	-0.06304514
179	0x3da1e98c	0.07905874
180	0x3d22cdea	0.039747156
181	0x3c8987e0	0.016788423
182	0xbc346191	-0.01100959
183	0xbdd3b495	-0.10337178
184	0xbe09ab86	-0.13444337
185	0xbd9ccb40	-0.07655954
186	0x3d7a892b	0.06116597
187	0xbd4b8d23	-0.049695145
188	0x3c150250	0.00909479
189	0x3e06c550	0.13161206
190	0xbd5223cd	-0.051303674
191	0xbe268fc0	-0.16265774
192	0x3e2e3ac4	0.17014605
193	0xbd68ef4b	-0.056868833
194	0xbe67a945	-0.22623165
195	0xbdc176cf	-0.09446489
196	0xbd67b605	-0.05657007
197	0x3d64a38f	0.055820044
198	0x3b6eb28b	0.0036422338
199	0x3df7ff29	0.12109215
200	0x3be01ff5	0.006839747
201	0xbdb6e3b0	-0.08930147
202	0xbe022552	-0.12709549
203	0x3dd2a5ee	0.10285555
204	0x3d4fbfe0	0.050720096
205	0xbd3645b1	-0.044500057
206	0x3d226796	0.03964957
207	0x3db4b753	0.08824029
208	0x3e490289	0.19629873
209	0x3dd07b90	0.10179818
210	0xbcd9beb2	-0.026580188
211	0x3e38e548	0.18056214
212	0xbd9e1509	-0.07718856
213	0x3c232d68	0.009959556
214	0xbd82d037	-0.0638737
215	0x3e114a4d	0.141885
216	0x3c12342c	0.008923572
217	0xbc94f7c9	-0.01818456
218	0x3d03a00e	0.032135062
219	0x3dd3bf29	0.10339195
220	0xbbbbb514	-0.0057283733
221	0x3e1b90f6	0.15192017
222	0x3e1c1034	0.15240556
223	0xbc1b41da	-0.009476149
224	0xbda51093	-0.08059802
225	0xbe57e060	-0.21081686
226	0xbdfebc4f	-0.12438261
227	0x3d0fdf76	0.03512522
228	0xbe0c2d4f	-0.13689159
229	0xbe005ff5	-0.12536605
230	0xbe127220	-0.14301348
231	0xbdac86b3	-0.08424129
232	0xbe4b04ad	-0.19826002
233	0xbdc52781	-0.096266754
234	0xbdb94425	-0.09046201
235	0xbb866d26	-0.004102367
236	0x3c9b22a6	0.01893742
237	0x3d533c2a	0.05157105
238	0xbdd83779	-0.105574556
239	0x3d2e6838	0.04257986
240	0xbe3da1b9	-0.18518724
241	0xbe0a4341	-0.13502218
242	0xbe18bc66	-0.14915618
243	0xb9cebd79	-0.0003943255
244	0x3d615eaf	0.055021938
245	0xbd8b300f	-0.06796276
246	0x3e19bdee	0.15013859
247	0xbe0c6fd0	-0.13714528
248	0xbdbc15d7	-0.09183853
249	0xbd1f688a	-0.038918056
250	0xbd840bf8	-0.06447595
251	0xbd83120e	-0.06399928
252	0xbd297536	-0.041371547
253	0xbe176e03	-0.1478806
254	0xbc49e90f	-0.012323632
255	0x3df5fb69	0.12010843

down_blocks.1.conv2.bias f4 [16]
0	0x3c589b26	0.013220584
1	0xbe28ee48	-0.16497147
2	0xbe00f55f	-0.12593602
3	0xbd843d42	-0.064569965
4	0xbe7b3adf	-0.24534176
5	0xbe905b09	-0.28194454
6	0xbe06778e	-0.13131544
7	0xbdc8caf7	-0.098043375
8	0xbe192cf2	-0.14958552
9	0xbe369c47	-0.17833053
10	0xbde7e285	-0.11322502
11	0x3d066db6	0.032819472
12	0xbde48c26	-0.11159544
13	0xbdeca804	-0.11555484
14	0xbd59a0c4	-0.053131834
15	0xbea2cb7a	-0.31795865

down_blocks.1.norm1.weight f4 [16]
0	0x3f83de88	1.0302286
1	0x3f8a31b6	1.079642
2	0x3f826cd9	1.0189468
3	0x3f52b145	0.8230174
4	0x3f87f068	1.0620241
5	0x3f6fbe19	0.9364944
6	0x3f7302c2	0.94926083
7	0x3f892d9f	1.0717047
8	0x3f8595ed	1.0436379
9	0x3f77f1d8	0.968534
10	0x3f727941	0.9471627
11	0x3f65763e	0.8963355
12	0x3f7aa8e3	0.9791395
13	0x3f8b3e82	1.0878451
14	0x3f844094	1.0332208
15	0x3f77abc3	0.9674646

down_blocks.1.norm1.bias f4 [16]
0	0xbeb61fef	-0.35571238
1	0x3cc8b302	0.02449942
2	0xbeab8891	-0.3350263
3	0x3d642283	0.055696975
4	0xbc6eb7cb	-0.014570187
5	0x3e280279	0.16407193
6	0x3ddaca63	0.106831335
7	0xbe0098e3	-0.12558322
8	0xbe821d79	-0.2541311
9	0xbddfd201	-0.10928727
10	0x3e432c87	0.19059955
11	0xbeafad3b	-0.34311852
12	0xbd93d334	-0.07218018
13	0xbd5c3d98	-0.053769678
14	0xbe07ea74	-0.1327303
15	0xbe617525	-0.22017343

down_blocks.1.norm1.running_mean f4 [16]
0	0x402e0065	2.718774
1	0x3ed53e0d	0.41648903
2	0x3d080da6	0.03321614
3	0x3eb98935	0.36237493
4	0x3e6ab004	0.22918707
5	0x3f66ec46	0.90204275
6	0x3dbc16a5	0.091840066
7	0x3f7640db	0.9619271
8	0x3f7c35f1	0.9851981
9	0x3ee1eec3	0.44127473
10	0x3f4a7adb	0.7909371
11	0x3ee2a9a7	0.4427006
12	0x3d821598	0.06351775
13	0x3e08f259	0.13373698
14	0x3e7c410e	0.24634191
15	0x3e82944f	0.25503775

down_blocks.1.norm1.running_var f4 [16]
0	0x3f777349	0.96660286
1	0x3f2c7f3f	0.6738166
2	0x3e2468bc	0.16055578
3	0x3ebc77c7	0.36810133
4	0x3e01ce80	0.1267643
5	0x4012cef5	2.2938817
6	0x3e442612	0.19155148
7	0x4005878a	2.0863976
8	0x3f8b8f3e	1.0903089
9	0x3fa081a8	1.2539568
10	0x3f0be788	0.54650164
11	0x3f9ccc82	1.2249911
12	0x3e8e8d69	0.27842262
13	0x3f34b887	0.70594066
14	0x3e896517	0.26834938
15	0x3fcc9a8b	1.5984663

down_blocks.1.norm2.weight f4 [16]
0	0x3f747403	0.9548952
1	0x3f71f916	0.945207
2	0x3f85cc56	1.0452983
3	0x3f7e3ab6	0.99308336
4	0x3f904a12	1.1272604
5	0x3f8ad210	1.0845356
6	0x3f69ae2b	0.91281384
7	0x3f870d78	1.0550985
8	0x3f7d3fc2	0.9892541
9	0x3f67a2d3	0.90482825
10	0x3f5b43a2	0.85650074
11	0x3f809f3d	1.0048596
12	0x3f90ccd6	1.1312511
13	0x3f80440c	1.0020766
14	0x3f63a578	0.8892436
15	0x3f7f1130	0.996356

down_blocks.1.norm2.bias f4 [16]
0	0xbc92d59b	-0.01792412
1	0xbe53cb1e	-0.20682952
2	0x3e4db865	0.20089872
3	0x3dcf84a0	0.10132718
4	0x3db9900d	0.09060679
5	0x3e1a2bb9	0.15055741
6	0x3e2974db	0.16548483
7	0xbe46e50a	-0.19423309
8	0x3dd0e237	0.10199397
9	0xbe63c5ce	-0.22243425
10	0xbdce8af8	-0.100851
11	0x3e9b2e10	0.3030858
12	0x3e9972a1	0.29970267
13	0x3d3ea6e7	0.04654589
14	0xbe2ef91a	-0.17087212
15	0x3d46fd56	0.048581444

down_blocks.1.norm2.running_mean f4 [16]
0	0x3f5da5bc	0.86581016
1	0x3f003042	0.50073636
2	0x3e10161e	0.14070937
3	0x3f1b2f75	0.6061929
4	0x3e5b8f9d	0.21441503
5	0x3dff9d6b	0.12481197
6	0x3e852c38	0.260103
7	0x3ecc8c3c	0.3995074
8	0x3f26b677	0.6512217
9	0x3f296086	0.6616291
10	0x3ed44612	0.4145971
11	0x3fcb7842	1.5896075
12	0x3ef46d1e	0.477395
13	0x3f79c2a7	0.9756264
14	0x3f842e90	1.032671
15	0x3e847f54	0.25878394

down_blocks.1.norm2.running_var f4 [16]
0	0x409f6bbd	4.9819016
1	0x3f509e44	0.81491494
2	0x3f45d7c9	0.77282387
3	0x410a8842	8.658266
4	0x40109b6e	2.2594867
5	0x3f92d7d8	1.147212
6	0x4066f18c	3.6084929
7	0x3f59bfc1	0.8505822
8	0x3f6d578f	0.9271173
9	0x3fa982e3	1.3243068
10	0x409bde7f	4.87091
11	0x40cbc749	6.368077
12	0x3fe457fc	1.7839351
13	0x407ba09f	3.9316785
14	0x401f94fe	2.4934688
15	0x3f939b09	1.1531688

down_blocks.2.conv1.weight f4 [32, 16, 3, 3]
0	0x3c6de839	0.014520698
1	0x3da01399	0.07816238
2	0x3e24d840	0.16098118
3	0xbdc2d944	-0.095140964
4	0xbe01f578	-0.12691295
5	0x3ddc82f5	0.107671656
6	0xbde1548c	-0.11002454
7	0xbe440138	-0.1914109
8	0xbd4df0c2	-0.050278433
9	0xbd99d40a	-0.07511146
10	0x3d380074	0.044922307
11	0x3da2e0d1	0.079530366
12	0xbd634612	-0.055486746
13	0xbd2a37cc	-0.04155712
14	0xbe2fec50	-0.1717999
15	0x3e2f943e	0.17146394
16	0x3d716bb1	0.058940593
17	0xbc5ad740	-0.013356984
18	0x3e1da31a	0.1539425
19	0x3e26b52e	0.16280052
20	0xbcfde87d	-0.030994648
21	0xbd81e62c	-0.0634273
22	0x3ce4d16f	0.027931897
23	0x3d1e66dd	0.038672317
24	0xbe6f524e	-0.2337124
25	0xbe2a804e	-0.16650507
26	0xbe083419	-0.13301124
27	0xbd8d0b12	-0.06886877
28	0x3dea91c8	0.11453587
29	0x3e44a40d	0.19203205
30	0xbec55c99	-0.3854721
31	0x3ca6d92a	0.020367224
32	0x3e11021a	0.14160958
33	0xbedc42fc	-0.43019855
34	0xbdd42434	-0.10358468
35	0x3dda4701	0.10658074
36	0x3c6a2044	0.014289919
37	0xbd631e00	-0.055448532
38	0xbc8ab868	-0.016933635
39	0x3e1ffc5b	0.1562361
40	0xbdec4c9c	-0.115380496
41	0xbe473a22	-0.1945577
42	0xbcc7f342	-0.024407987
43	0xbe680099	-0.22656478
44	0xbe90efd9	-0.2830799
45	0xbd27403a	-0.040832736
46	0x3e0ae120	0.13562441
47	0xbd43a2dc	-0.047762737
48	0xbdcc576b	-0.09977611
49	0xbd386d02	-0.045025833
50	0xbc498d5f	-0.012301772
51	0xbe1df8ce	-0.15426943
52	0xbe1a3532	-0.15059355
53	0x3c2393c5	0.0099839615
54	0xbe0f04b6	-0.13966641
55	0xbdd0e396	-0.101996586
56	0x3d9f4012	0.07775892
57	0xbe80d052	-0.25158936
58	0x3bb8abf3	0.0056357323
59	0xbda5fd74	-0.08104983
60	0xbe63b3dd	-0.22236581
61	0xbc815ca7	-0.01579125
62	0xbc93e8f1	-0.018055411
63	0x3e489717	0.19588886
64	0x3b29aded	0.0025891021
65	0xbe12573e	-0.14291093
66	0x3d67cda6	0.056592606
67	0x3e0a649c	0.13514942
68	0xbdec37d7	-0.11534088
69	0x3e2768d1	0.16348578
70	0x3ce11701	0.02747679
71	0xbdce43b6	-0.100715086
72	0x3c448090	0.011993542
73	0xbe0c263b	-0.13686459
74	0xbd865995	-0.06560055
75	0xbe003b3d	-0.12522598
76	0xbdaae2ba	-0.08344026
77	0xbd374b2f	-0.044749435
78	0xbc8f9fa2	-0.017532174
79	0xbd438285	-0.047731895
80	0xbe01359c	-0.12618107
81	0xbca58d6a	-0.020209033
82	0xbc4950d7	-0.01228734
83	0xbda4851f	-0.08033203
84	0x3e05ed08	0.13078701
85	0x3cd3fb78	0.025876746
86	0x3bf3d482	0.0074411044
87	0x3e143299	0.14472426
88	0x3de3efd1	0.11129726
89	0x3e0a8781	0.13528253
90	0x3c74ae5b	0.014934148
91	0x3dcd6a78	0.10030073
92	0x3dabf67c	0.083966225
93	0x3d64beb6	0.05584594
94	0xbe60a569	-0.21938099
95	0xbb0e7afc	-0.0021740785
96	0xbdafe1a9	-0.08587963
97	0xbd7fb8ba	-0.06243203
98	0xbe1ebf88	-0.15502751
99	0xbd95e91b	-0.07319852
100	0xbda378b2	-0.07982005
101	0xbdddb8dc	-0.10826275
102	0xbe62704f	-0.22113155
103	0xbe702aa5	-0.23453768
104	0xbdebba79	-0.11510176
105	0xbdefa089	-0.117005415
106	0xbe1ca4af	-0.15297197
107	0xbe05173f	-0.12997149
108	0xbe9942bf	-0.29933736
109	0x3bda7a1f	0.00666739
110	0xbd3b27c2	-0.045692213
111	0xbe2ff830	-0.1718452
112	0x3cfb89eb	0.030705413
113	0x3d4a0573	0.049321603
114	0xbe928600	-0.2861786
115	0xbdda302f	-0.106537215
116	0x3dd7f751	0.10545219
117	0x3d5d2e78	0.053999394
118	0x3db0a628	0.08625442
119	0x3d824f0b	0.063627325
120	0x3dede375	0.116156496
121	0x3d2b3ddd	0.041807044
122	0x3de030fe	0.109468445
123	0xbdcc6e75	-0.099820055
124	0xbd4d245e	-0.05008351
125	0xbc020910	-0.007936731
126	0x3e202579	0.15639295
127	0x3b249a6c	0.0025116457
128	0xbd634d3a	-0.05549357
129	0x3d26a2c5	0.040682573
130	0x3b1c8fdc	0.0023889458
131	0xbd377ddd	-0.044797767
132	0x3e3ce655	0.1844724
133	0x3d84ec43	0.06490376
134	0x3bff16d2	0.007784703
135	0xbd8ac3d7	-0.06775635
136	0xbd282332	-0.04104919
137	0x3c998662	0.018740837
138	0xbe5af8ff	-0.21384047
139	0xbe1572ff	-0.14594649
140	0x3dd73708	0.10508543
141	0xbc84e123	-0.016220635
142	0x3d298f67	0.041396525
143	0x3e0e5c6b	0.13902442
144	0xbdd95e82	-0.10613729
145	0x3d6c41ad	0.05767982
146	0x3c3187f3	0.0108356355
147	0xbdf8d8f3	-0.12150755
148	0x3d4d3dca	0.050107755
149	0x3da4bf50	0.080443025
150	0x3e301fd1	0.17199637
151	0x3d43e59d	0.0478264
152	0xbcb85fe8	-0.02250667
153	0x3e04cdfe	0.12969205
154	0xbe0bc4a9	-0.13649239
155	0xbd65487c	-0.05597733
156	0x3e301ee7	0.17199288
157	0x3d120a8d	0.035654593
158	0xbdce0411	-0.10059369
159	0xbd58137a	-0.05275295
160	0xbde54e99	-0.11196632
161	0x3bc707d9	0.0060739336
162	0x3ce34736	0.027743917
163	0x3cd6ff16	0.026244681
164	0x3d6fa61f	0.058508035
165	0xbda0666b	-0.07832035
166	0xbd05f9e7	-0.03270903
167	0xbd511fe0	-0.05105579
168	0xbe2042a1	-0.15650417
169	0xbd7461b0	-0.059663475
170	0xbdba36df	-0.09092497
171	0xbd7674f5	-0.060170133
172	0xbdff9d38	-0.12481159
173	0xbd07ed23	-0.033185136
174	0xbd64978e	-0.055808596
175	0xbe277a35	-0.16355212
176	0xbd450ab5	-0.048105914
177	0xbcf9a79c	-0.03047543
178	0xbd931eca	-0.07183607
179	0xbd7e354b	-0.062062543
180	0xbc62863b	-0.013825948
181	0xbe7464f6	-0.23866639
182	0xbda1dae5	-0.07903079
183	0x3e38c207	0.18042766
184	0xbd48650a	-0.048924483
185	0xbe7be339	-0.24598397
186	0x3afec10f	0.0019436198
187	0x3df3e02b	0.11907991
188	0xbd3a4fce	-0.045486264
189	0xbbac7b9f	-0.00526376
190	0x3d22e829	0.039772186
191	0xbdf110cd	-0.117707826
192	0x3e996d46	0.29966182
193	0x3e1fed81	0.15617944
194	0xbd3bffc9	-0.045898233
195	0x3e51d31d	0.2049069
196	0x3d05fd51	0.032712284
197	0xbcecb8c2	-0.028896693
198	0xbe3a1a80	-0.18174171
199	0x3d2c104c	0.04200773
200	0x3d86fd41	0.06591273
201	0x3daf562a	0.08561356
202	0xbd29ec49	-0.041485105
203	0xbdb71c75	-0.089409746
204	0x3e547ce9	0.20750774
205	0xbc1dd697	-0.009633682
206	0x3db36de1	0.08761192
207	0xbe1ddf72	-0.15417269
208	0xbdf9bf5b	-0.12194701
209	0xbc538ed1	-0.012912468
210	0x3d5ee172	0.05441422
211	0x3e14cb43	0.14530663
212	0xbdb07035	-0.08615152
213	0x3e0a45d3	0.13503198
214	0x3e1eb12d	0.15497275
215	0x3e105a4a	0.14096943
216	0x3b93686a	0.004498531
217	0xbc256c9a	-0.010096693
218	0xbd2673a6	-0.040637635
219	0x3e0de439	0.13856591
220	0x3e83bdfd	0.25730887
221	0xbd81dc17	-0.06340807
222	0x3ddf681b	0.109085284
223	0x3e0d65e4	0.138084
224	0xbc85d1fc	-0.01633548
225	0xbc561088	-0.013065465
226	0xbd3e7387	-0.046496894
227	0xbe1e3c5d	-0.15452714
228	0x3e342274	0.17591268
229	0x3e9ceb04	0.30648053
230	0x3c50b81f	0.01273921
231	0x3dae211c	0.08502409
232	0x3dd1f97a	0.10252662
233	0x3dd3760c	0.1032525
234	0xbd4a1ebb	-0.049345713
235	0xbe20ffe7	-0.15722619
236	0xbcfb4c20	-0.030675948
237	0xbd286ee2	-0.04112137
238	0xbcc03649	-0.023463385
239	0xbd772f00	-0.060347557
240	0x3b2eba0a	0.002666118
241	0x3e245dc3	0.16051392
242	0xbdd1ae9a	-0.10238381
243	0x3d87cb44	0.06630567
244	0x3d68904a	0.05677823
245	0x3e3b93d9	0.18318118
246	0xbe089c4d	-0.13340874
247	0xbd8166d8	-0.06318444
248	0x3d44df0f	0.048064288
249	0xbc7ff170	-0.015621528
250	0xbe231566	-0.15926132
251	0x3d7aec04	0.06126024
252	0x3e203b47	0.15647613
253	0x3df23e6b	0.118283115
254	0x3dc78c49	0.09743554
255	0x3e72b8eb	0.23703353

down_blocks.2.conv1.bias f4 [32]
0	0xbe542b4e	-0.20719644
1	0xbd9c0a73	-0.076191805
2	0xbea21d66	-0.31663054
3	0xbc603641	-0.01368481
4	0xbe3c69c0	-0.18399715
5	0x3dd3a159	0.10333509
6	0xbd7f8720	-0.062384725
7	0xbce1c2e7	-0.027558757
8	0xbd605a55	-0.054773647
9	0xbd4fa73c	-0.050696597
10	0xbe207446	-0.15669355
11	0xbd79ab88	-0.0609546
12	0xbe23319e	-0.15936896
13	0xbddd25b2	-0.107982054
14	0xbd7292be	-0.059221976
15	0x3de317b0	0.110885024
16	0xbe012f63	-0.12615733
17	0xbe0dcad8	-0.1384691
18	0xbe65ce2c	-0.2244193
19	0xbdbd74b8	-0.09250778
20	0xbd7d6d21	-0.06187165
21	0x3d86a107	0.06573682
22	0xbdd30885	-0.10304359
23	0xbd09fa2a	-0.03368584
24	0xbd1c2569	-0.038121615
25	0xbd51920c	-0.05116467
26	0xbdb67a54	-0.08910051
27	0x3d3a6416	0.045505606
28	0x3dcca750	0.0999285
29	0xbd861442	-0.065468326
30	0xbd7a552c	-0.061116382
31	0xbe050b37	-0.1299256

down_blocks.2.conv2.weight f4 [32, 32, 3, 3]
0	0x3e416d40	0.18889332
1	0x3e1b25a5	0.15151079
2	0x3e689376	0.22712502
3	0x3e5893b7	0.21150099
4	0x3e11d54d	0.14241524
5	0x3e599aa5	0.21250398
6	0x3e841d2f	0.25803515
7	0x3e7d8338	0.24757087
8	0x3e21c311	0.15797068
9	0xbc5f31bc	-0.013622697
10	0x3d608b41	0.054820303
11	0x3d4f506b	0.050613802
12	0xbd505572	-0.050862737
13	0xbd2134ce	-0.039357
14	0x3de5a8fe	0.11213873
15	0xbe21ddb9	-0.15807237
16	0xbde46c35	-0.11153451
17	0xbd0b7a2b	-0.034052055
18	0x3c1d5f02	0.009605171
19	0x3ddf1e43	0.10894444
20	0x3db92db9	0.09041924
21	0xbd2e5d3c	-0.042569384
22	0x3d321a54	0.04348214
23	0x3d37ad12	0.044842787
24	0xbd379cbd	-0.04482721
25	0x3ddfd795	0.10929791
26	0x3d0029ec	0.03128998
27	0xbc309c18	-0.010779403
28	0xbda8b2cb	-0.08237227
29	0xbd7c5be8	-0.061611086
30	0xbdb4d388	-0.08829409
31	0x3db1c35f	0.08679842
32	0x3dd48e8f	0.103787534
33	0x3c649b3b	0.013953025
34	0x3d86ded4	0.0658547
35	0xbdd818dd	-0.10551617
36	0xbcd2ed60	-0.025747955
37	0xbe1136eb	-0.14181106
38	0xbd8a9013	-0.06765761
39	0xbd58f230	-0.052965343
40	0xbe3bb969	-0.18332447
41	0xbcd4c0c2	-0.02597082
42	0xbe93872a	-0.2881406
43	0xbe373126	-0.17889842
44	0xbe210f9e	-0.15728614
45	0x3e0cff15	0.13769181
46	0x3dfff736	0.124983236
47	0x3d92e937	0.071733885
48	0x3e218be2	0.15776017
49	0x3d9b0c7a	0.07570739
50	0x3d06e6c4	0.03293492
51	0x3d834e9a	0.064114764
52	0x3de052c9	0.1095329
53	0xbbfb4f99	-0.007669401
54	0x3e06d94c	0.1316883
55	0x3d4fa5b7	0.050695147
56	0xbd588c01	-0.052867893
57	0x3c14466e	0.009049995
58	0xbce8eeae	-0.028434124
59	0x3d83cc37	0.06435435
60	0x3cd4b54d	0.025965357
61	0xbd054d68	-0.032544523
62	0x3d3c53f1	0.04597849
63	0x3e05b732	0.13058165
64	0xbd2488e9	-0.04016963
65	0x3cd1e372	0.02562115
66	0x3d44e695	0.048071463
67	0x3daab5ee	0.083354816
68	0x3d9527c1	0.07282973
69	0x3d056bcb	0.032573503
70	0xbd32ecc3	-0.043682825
71	0xbbcf1688	-0.0063198246
72	0x3caa43ac	0.020784222
73	0xbd840327	-0.06445914
74	0x3c272322	0.010201247
75	0x3c7ef4a8	0.01556126
76	0x3d64321c	0.05571185
77	0xbc9ec426	-0.01938064
78	0x3d47674c	0.048682496
79	0x3b2d8384	0.0026476094
80	0x3d81ca06	0.06337361
81	0x3d4a447b	0.049381714
82	0x3dbbe34d	0.091742136
83	0x3e098fbf	0.13433741
84	0x3db90090	0.090333104
85	0x3dcc48f1	0.0997485
86	0x3df95fbb	0.12176462
87	0x3cb6f0ab	0.022331556
88	0xbd8851dc	-0.066562384
89	0xbdbefd6d	-0.09325681
90	0x3e53a463	0.20668177
91	0x3e78f629	0.24312653
92	0x3e641acd	0.22275849
93	0x3e0af1f6	0.13568863
94	0x3e65444f	0.22389339
95	0x3e5f1092	0.21783665
96	0x3d18192e	0.03713339
97	0xba0543e7	-0.00050836656
98	0x3d8c14c9	0.06839902
99	0x3e4ac7a4	0.1980272
100	0x3e3d2283	0.18470196
101	0x3e09afdf	0.13445996
102	0x3deaf81a	0.11473103
103	0x3e3d4d1b	0.18486445
104	0x3e691910	0.22763467
105	0x3e219348	0.1577884
106	0x3e2b1b3e	0.16709611
107	0x3de06046	0.10955863
108	0xbbca4372	-0.006172591
109	0x3d6aa276	0.05728384
110	0xbda67381	-0.08127499
111	0x3d711a77	0.05886313
112	0x3e0c2435	0.13685687
113	0x3e1378e8	0.14401591
114	0xbd49dc30	-0.049282253
115	0x3c57ff54	0.013183434
116	0x3d16bd5a	0.036801673
117	0xbda75f44	-0.08172467
118	0xbcc76402	-0.02433968
119	0x3c35d2d2	0.011097627
120	0x3cd3b195	0.025841514
121	0x3d8895b1	0.06669176
122	0xbda3275c	-0.079664916
123	0xbbe97115	-0.007124076
124	0xbd08673a	-0.03330157
125	0xbd53fa2c	-0.051752254
126	0xbd251c72	-0.04031033
127	0x3d190e15	0.037366945
128	0x3d2b8cfd	0.041882504
129	0xbd96f427	-0.07370787
130	0x3e2c8925	0.16849191
131	0x3d9143b5	0.07092992
132	0xbc6666e8	-0.014062621
133	0x3d30958b	0.043111365
134	0x3da60e02	0.081081405
135	0xbdc2aba2	-0.095053926
136	0xbce78a7d	-0.028264279
137	0x3c54ba05	0.012983804
138	0xbd798d88	-0.06092599
139	0xbdd396f2	-0.10331525
140	0x3ca45d23	0.020063942
141	0x3d57b071	0.052658502
142	0xbd170f7b	-0.036879998
143	0xbd4be227	-0.049776223
144	0x3d0f7735	0.035025794
145	0x3d0754e9	0.03303996
146	0xbe168243	-0.14698128
147	0xbc916449	-0.017748015
148	0xbdc5b5f0	-0.096538424
149	0xbc744fa1	-0.014911563
150	0xbc6c6366	-0.014427995
151	0xbdd4380a	-0.10362251
152	0xbda8b68a	-0.082379416
153	0x3db6c431	0.08924139
154	0xbcc42388	-0.023942724
155	0xbc5cf202	-0.0134854335
156	0x3c6826db	0.01416942
157	0x3d2a35c1	0.04155517
158	0x3dac8970	0.084246516
159	0xbd872c4d	-0.066002466
160	0x3db99e9e	0.09063457
161	0x3de58a04	0.11207965
162	0xbb87773b	-0.0041340864
163	0x3e19ed22	0.15031865
164	0x3e487f71	0.19579865
165	0x3e205a26	0.15659389
166	0x3df5a7ad	0.11994872
167	0x3e5af80c	0.21383685
168	0x3d3adc2c	0.04562013
169	0x3c864655	0.016390959
170	0xbc3c57ec	-0.011495572
171	0x3cd8edc9	0.026480572
172	0xbd1b5ac9	-0.037928376
173	0x3d871999	0.06596679
174	0x3d6a912f	0.057267364
175	0x3b0db920	0.0021625236
176	0x3e1c7e7f	0.1528263
177	0xbdf05c9e	-0.11736415
178	0xbcd95cb7	-0.026533468
179	0xbd9ea9b5	-0.07747213
180	0x3e4f604c	0.20251578
181	0x3d9297af	0.071578376
182	0x3dedaa49	0.11604745
183	0x3dff7c18	0.12474841
184	0x3e372dae	0.17888519
185	0x3e10f686	0.14156541
186	0x3e47bcc0	0.19505596
187	0x3cc402d9	0.02392714
188	0x3e5fbc5a	0.21849194
189	0xbdb69eb4	-0.08916989
190	0xbe0da02a	-0.13830629
191	0xbd70f24f	-0.058824833
192	0xbe3afe07	-0.18260966
193	0xbe3e21be	-0.18567559
194	0xbdc75428	-0.097328484
195	0xbe135f51	-0.14391829
196	0xbe738eab	-0.23784892
197	0xbe6f767a	-0.23385039
198	0x3d8bd661	0.06827999
199	0x3cce468a	0.02518012
200	0xbd4364b9	-0.04770348
201	0xbceca68b	-0.028888008
202	0x3c17012f	0.009216591
203	0x3c5ac25f	0.013352006
204	0xbdb44795	-0.08802716
205	0xbdea0198	-0.11426085
206	0xbda0fd97	-0.078608684
207	0x3c1c5663	0.009542081
208	0x3cdbdfa9	0.026840048
209	0xbd01bb40	-0.031672716
210	0xbcd2d78a	-0.025737543
211	0x3dc72ec2	0.09725715
212	0x3dc1aae3	0.09456422
213	0x3d9df54a	0.07712801
214	0x3dd621fc	0.10455701
215	0xbd46cfa4	-0.048537865
216	0x3e0ee47e	0.1395435
217	0xbc49974f	-0.012304141
218	0x3d2a6b87	0.041606452
219	0xbd92e3c9	-0.07172353
220	0x3d739fae	0.059478454
221	0xbdb0752f	-0.08616101
222	0xbd3aec0e	-0.045635276
223	0x3c899332	0.016793821
224	0xbcbda9f7	-0.023152335
225	0x3ddaadc7	0.10677677
226	0xbd055789	-0.032554183
227	0xbe41d3c6	-0.18928441
228	0x3b15569d	0.0022787221
229	0xbced7cb1	-0.028990122
230	0xbdd70645	-0.10499243
231	0x3ca9e738	0.020740137
232	0xbd98bbc3	-0.07457688
233	0xbc0be2c5	-0.008537953
234	0x3d1e0f46	0.038588785
235	0x3cc436ec	0.02395197
236	0xbdcbc3a9	-0.099494286
237	0xbdd29aea	-0.10283454
238	0xbe1986cb	-0.14992826
239	0xbc750290	-0.014954224
240	0x3ca7bf85	0.020477066
241	0xbd349b8d	-0.044093657
242	0xbe0444c3	-0.12916856
243	0x3d0284a1	0.031864766
244	0x3d080acd	0.033213425
245	0xbd5f51dc	-0.054521427
246	0xbd237142	-0.039902933
247	0x3ad1da05	0.001601041
248	0x3c5bdf66	0.013419962
249	0x3ca1eaf4	0.019765355
250	0xbca9d39c	-0.020730786
251	0x3db5a443	0.08869221
252	0x3c2ad19f	0.010425954
253	0xbb92c881	-0.0044794683
254	0x3bfc3b27	0.007697481
255	0xbcbe1085	-0.023201237

down_blocks.2.conv2.bias f4 [32]
0	0xbd88508e	-0.066559896
1	0xbcd889c8	-0.026432887
2	0xbdd5adea	-0.10433562
3	0xbe1f2d90	-0.15544724
4	0xbe297177	-0.1654719
5	0xbe37b906	-0.17941675
6	0xbdb2ab1a	-0.08724041
7	0xbe847026	-0.25866812
8	0x3e337359	0.1752447
9	0xbe3ecfa4	-0.18633896
10	0xbe468051	-0.19384886
11	0xbd8ee035	-0.06976358
12	0xbd9c65e5	-0.07636622
13	0x3d936e41	0.07198764
14	0x3d1bc703	0.03803159
15	0xbe542d1d	-0.20720334
16	0xbd8a52e9	-0.06754095
17	0xbdc1a865	-0.09455947
18	0xbd439d2e	-0.04775732
19	0xbc152c78	-0.00910484
20	0x3de64c22	0.1124499
21	0xbe56c845	-0.20974834
22	0xbc825159	-0.01590793
23	0xbdf79b22	-0.12090136
24	0xbe229276	-0.15876183
25	0xbd83fea9	-0.06445057
26	0xbb647daf	-0.0034864952
27	0xbdf818d2	-0.12114109
28	0xbe1a4a86	-0.15067491
29	0xbdb105d8	-0.08643693
30	0xbda14e51	-0.07876266
31	0xbe0cd16e	-0.13751766

down_blocks.2.norm1.weight f4 [32]
0	0x3f9a6827	1.2063035
1	0x3f854fe9	1.0415012
2	0x3f9992f7	1.1997975
3	0x3f8fc89a	1.1233094
4	0x3f7c6fcc	0.9860809
5	0x3f6937a9	0.91100556
6	0x3f71b342	0.9441415
7	0x3f6a80ad	0.91602594
8	0x3f7cc74a	0.9874159
9	0x3f7d4909	0.9893957
10	0x3f81d5f5	1.014342
11	0x3f73f7ee	0.95300186
12	0x3f868aaf	1.0511073
13	0x3f6a36e0	0.9148998
14	0x3f7df903	0.99208087
15	0x3f7ae759	0.9800926
16	0x3f6ae0dd	0.91749364
17	0x3f7c54cd	0.98566896
18	0x3f853711	1.040743
19	0x3f838850	1.0275974
20	0x3f79093f	0.97279733
21	0x3f673b5f	0.9032497
22	0x3f8cf5ab	1.1012472
23	0x3f82a4c6	1.0206535
24	0x3f374c3c	0.716007
25	0x3f89f873	1.0778946
26	0x3f860e84	1.047318
27	0x3f692b68	0.9108186
28	0x3f6c24c2	0.9224359
29	0x3f647b69	0.8925081
30	0x3f7cf1f9	0.9880672
31	0x3f6840b9	0.9072376

down_blocks.2.norm1.bias f4 [32]
0	0x3d778bdf	0.060436126
1	0xbd7c9495	-0.061665136
2	0xbe420a3a	-0.18949214
3	0x3d9e41b9	0.07727379
4	0x3e1b04f3	0.15138607
5	0xbe4dbed2	-0.20092323
6	0xbc211e11	-0.009833829
7	0xbd807388	-0.06272036
8	0xbda042cb	-0.0782524
9	0xbd7b9a7c	-0.061426625
10	0x3e87a9ba	0.2649668
11	0x3d3310dc	0.04371725
12	0xbd8beb20	-0.06831956
13	0x3ddb8cb2	0.10720195
14	0xbcdfd8bf	-0.027325032
15	0xbdfea16e	-0.12433134
16	0x3e02210e	0.12707922
17	0xbda8e1e4	-0.0824621
18	0xbe0f790f	-0.14011024
19	0x3cf2836d	0.029603684
20	0x3d8246c7	0.06361156
21	0xbde662d5	-0.112493195
22	0xbdaa018a	-0.08301075
23	0xbd074c30	-0.033031642
24	0xbca16fe6	-0.019706678
25	0xbded1523	-0.11576297
26	0x3da7751f	0.08176636
27	0xbda5d759	-0.08097715
28	0xbe1d1d30	-0.15343165
29	0xbd73b661	-0.059500102
30	0xbe0530c9	-0.13006891
31	0xbe161c0c	-0.14659137

down_blocks.2.norm1.running_mean f4 [32]
0	0x3dc5dec0	0.09661627
1	0x3f6bb284	0.9206927
2	0x3e67a62c	0.22621983
3	0x3fbc8a3b	1.4729685
4	0x3ef83d66	0.48484343
5	0x3f259d98	0.64693594
6	0x3f089821	0.5335713
7	0x3f356e43	0.7087137
8	0x3f71f6ef	0.94517416
9	0x3f9d6d1f	1.2298926
10	0x3d945d24	0.07244328
11	0x3e50fa25	0.20407923
12	0x3eba5621	0.36393836
13	0x3f71f3af	0.94512457
14	0x3f297bc0	0.6620445
15	0x3f966883	1.1750644
16	0x3f4d3b07	0.80168194
17	0x3f4d2f58	0.80150366
18	0x3e29af4d	0.16570778
19	0x3f84b852	1.036875
20	0x3f76aa82	0.96353924
21	0x3fec45fd	1.8458859
22	0x3ecb5e8b	0.39720568
23	0x3f80f8f6	1.0075977
24	0x3f4d9d56	0.803182
25	0x3f26c3fb	0.6514279
26	0x3ef1e8ff	0.47248074
27	0x3fe50b89	1.7894145
28	0x3f8b65fe	1.08905
29	0x3f7ddd81	0.99166113
30	0x3f443294	0.76639676
31	0x3d6b732b	0.05748288
