src/lib/output/logs_2022-12-24-15-40/model.pth (torch, 536833 bytes, 109 tensors)

conv_final.weight f4 [1, 8, 1, 1]
000000 18 3b 85 3f 44 e6 3d 3f fc 2f 88 bf 1c 0b 46 3f
       1.0408659 0.7417948 -1.0639644 0.773607
000010 0d a6 9a 3f 45 49 e6 be ee e9 59 3f 81 68 3f 3f
       1.2081925 -0.44977775 0.85122573 0.74768835

down_blocks.0.conv1.weight f4 [8, 3, 3, 3]
000000 ad e0 24 be 9b 98 c4 bd 45 42 0d 3c bf 1c a4 bd
       -0.16101332 -0.0959942 0.008621757 -0.080132954
000010 6e 21 2b bc 65 20 56 3c 5d a5 95 3d a2 96 0f be
       -0.010444982 0.013069247 0.07306931 -0.14022306
000020 1f b0 3a bc dd aa 76 3d 66 28 d3 3d 79 96 bb bd
       -0.01139453 0.06022154 0.1031044 -0.0915956
000030 f7 92 a6 bd 46 a0 27 3e 95 4c 59 be 5a 0f 77 3e
       -0.081335 0.16369733 -0.2122062 0.2412695
000040 20 01 de 3d 7d b3 db bd 6b 01 98 3d 12 68 c2 bc
       0.10840058 -0.10727594 0.074221455 -0.023731265
000050 e5 df 83 bd 58 83 52 3e d0 00 1d 3e 00 e9 50 3e
       -0.06439189 0.20557916 0.15332341 0.20401382
000060 7e 48 3a bd 66 a4 66 3e f0 7e 15 be 44 4e 88 bd
       -0.04547929 0.2252365 -0.14599204 -0.06655553
000070 53 d5 5b 3e 8a 55 ec 3d 16 40 31 3d b2 3f 46 3d
       0.21468095 0.11539753 0.043274008 0.04840059
000080 71 85 cb bb ec 20 c3 3d be 67 3e be 37 52 51 be
       -0.006210976 0.09527764 -0.18594262 -0.20441519
000090 5b 17 f7 bd d1 03 00 3e 0f 9a 4e 3d 82 e2 42 be
       -0.120650016 0.12501456 0.05043989 -0.19031718
0000a0 78 6e ee 3b 63 f2 74 3c 8c 61 35 be 09 1f ee 3d
       0.0072763525 0.014950368 -0.17712992 0.11627013
0000b0 fe b6 44 3e 99 da c5 3c 59 2e 5c be d1 ab de bb
       0.19210431 0.024152087 -0.21502055 -0.0067953845
0000c0 4c 80 58 be e8 58 26 3e 01 61 6f 3e c8 bd c0 bd
       -0.21142691 0.16244853 0.23376848 -0.09411198
0000d0 da 46 f3 3d 63 fb 2c be 67 3b 49 3d 3a 77 32 3a
       0.11878748 -0.16892771 0.049128916 0.0006807927
0000e0 bc ec 5d 3e 67 de 31 be e1 80 05 be f9 22 31 3e
       0.21672338 -0.17369996 -0.13037445 0.17298497
0000f0 bf 7e 0a 3d 78 ec c2 bc bd 89 4e be 37 30 cd bd
       0.03381228 -0.023794398 -0.2016973 -0.10018962
000100 a2 92 fe 3d be 7b 59 be 6b 44 e4 bd 9c 55 76 3e
       0.12430312 -0.2123861 -0.11145862 0.24056095
000110 d7 4a 09 3e 24 36 0c 3e 6b 78 fc bc 15 1c ba bb
       0.13407455 0.13692528 -0.030819139 -0.005679617
000120 b4 43 7b 3c 84 74 c8 3d b1 55 96 bd cb 0f 7a 3e
       0.015335966 0.097878486 -0.07340563 0.24420087
000130 93 20 35 3e a5 31 47 be 4b 86 44 3e 10 70 5c be
       0.17688207 -0.19452532 0.19191854 -0.21527123
000140 ac ad 60 bc 15 cd 77 bd 75 dc a3 ba 37 a0 55 3e
       -0.013713282 -0.060498316 -0.0012501614 0.20861898
000150 90 83 0a 3e a9 ae 89 3a cd 94 16 3e d5 ae e1 bd
       0.1352675 0.0010504323 0.147052 -0.11019675
000160 13 00 76 be e1 d0 59 3c 74 47 bb 3c 3c eb ec bc
       -0.24023466 0.0132944295 0.02286122 -0.028920762
000170 cd 14 fb bd 49 1a 7b bc fa ff 3c 3e 08 41 4a bd
       -0.12259827 -0.015326091 0.18457022 -0.049378425
000180 70 9c e9 bc 23 62 ec bc 19 35 4f be df 9f a1 bd
       -0.028516978 -0.028855389 -0.20235099 -0.07891821
000190 02 0f 5e bd f7 11 f2 bd c7 41 50 be 41 16 4c 3e
       -0.05421353 -0.11819833 -0.20337592 0.19930364
0001a0 d6 17 22 bd c7 f8 0d bd 3a 29 2d 3e 61 9d e7 bc
       -0.039573513 -0.03466108 0.16910258 -0.028273286
0001b0 ab 76 1e 3d e6 79 1b 3e 4a 2c 4b 3d db d5 35 be
       0.03868739 0.1518322 0.049602784 -0.1775736
0001c0 31 2d f1 3d ac 47 87 3d c5 8f 50 3e d0 d0 5b be
       0.11776198 0.06605467 0.20367344 -0.21466374
0001d0 b2 02 c3 bc 2c 1f 1b be 19 56 c4 bd 51 55 1c 3e
       -0.023804996 -0.1514861 -0.09586734 0.1526692
0001e0 a5 87 17 3e e1 c1 60 3e 22 92 2c be da 4e 5f be
       0.14797838 0.21948959 -0.1685262 -0.21807423
0001f0 c9 b6 64 3d 45 b2 90 bd 89 31 bc 3d be b9 17 3e
       0.05583838 -0.07065252 0.091891356 0.14816949
000200 a3 7f 4b be 03 32 ce 3d 11 4a cb bd f6 0e 4f bd
       -0.19872908 0.10068133 -0.099262364 -0.050551377
000210 2e 78 74 3e 12 27 23 3e d5 2a ad 3d b1 e8 55 be
       0.2387397 0.15932873 0.08455435 -0.20889546
000220 84 9f 57 bc 2f b4 ac 3b 0f 75 8d 3d 5e 59 d5 bd
       -0.01316059 0.005270503 0.06907093 -0.10417436
000230 f0 2b d7 3d aa b2 54 3e 29 ba 53 bc b2 1a 24 be
       0.10506427 0.2077128 -0.012922802 -0.16025808
000240 30 08 b3 3d e6 ac 74 bd f3 bb 03 3e 83 0d 7f 3e
       0.08741796 -0.0597352 0.12864666 0.24907498
000250 07 13 ce 3d 43 20 8d 3d ff 0c 5f be d3 7f 20 be
       0.10062223 0.06890919 -0.21782301 -0.15673761
000260 24 11 3e bd 09 fc 1b be 27 7c 6e bd 7e 67 70 be
       -0.046403065 -0.15232863 -0.05822387 -0.23476979
000270 b1 13 09 3e c8 ef 8e 3d 60 75 63 3d c3 a3 63 3e
       0.13386418 0.069793284 0.05553186 0.22230439
000280 38 9f 85 3d 11 47 41 3e 8b 37 49 be ba 22 9c 3d
       0.06524509 0.18874766 -0.19650094 0.07623811
000290 d7 ee 02 be 64 f8 b1 bd 5c 00 a0 3d ba 24 23 be
       -0.12786423 -0.08689955 0.078125685 -0.15931979
0002a0 9d 71 9a 3d e8 80 b3 3d 3d 1a a6 bd 77 31 90 bd
       0.07541201 0.08764821 -0.08110473 -0.07040685
0002b0 7c ba 5f 3e e0 5b 4f be 00 83 53 3e a8 bf 03 be
       0.21848482 -0.20249891 0.20655441 -0.1286608
0002c0 05 a3 a9 3c c4 15 07 be 4d ff 9d 3d c3 88 fd bc
       0.020707617 -0.13191897 0.077147104 -0.030949002
0002d0 9e 77 91 bd 23 23 98 3d 53 45 13 be 2e 64 85 bd
       -0.07102893 0.07428577 -0.14381914 -0.065132484
0002e0 fb 7f 0d 3d 7d a1 dc 3c d1 af 7f bd e8 55 11 be
       0.03454588 0.026932472 -0.06242353 -0.14192927
0002f0 86 66 e4 3d 2a 18 83 be de 6a a0 bc aa 4c f6 bc
       0.11152367 -0.25604373 -0.019582208 -0.030065853
000300 ad b1 05 be 20 b5 d8 3d f6 e3 c3 bd b2 ee 23 3e
       -0.13056059 0.10581422 -0.095649645 0.16009024
000310 89 53 81 3d 11 4e d0 3d f3 af c2 3c eb a9 54 3e
       0.06314761 0.1017114 0.02376554 0.20767944
000320 18 f2 10 3e a9 d1 42 3e bc d1 f3 3d 04 fb db bc
       0.14154851 0.19025292 0.11905238 -0.026853092
000330 d5 d1 71 be f9 d5 17 be 25 6a e0 bd ab 9e 0f 3e
       -0.23615201 -0.14827718 -0.109577455 0.14025371
000340 6b 46 49 3e 4e a3 80 3e 64 02 85 be 22 50 c4 3d
       0.19655769 0.25124592 -0.25978386 0.095855966
000350 14 af 6a 3e 56 f6 b9 3a e0 f6 c0 3d 78 da 21 3d
       0.2291835 0.0014187794 0.09422088 0.03951499

down_blocks.0.conv1.bias f4 [8]
000000 3c 50 80 3d 79 cb ac bc 4d 54 b3 bc 64 23 d3 bc
       0.062653035 -0.021093117 -0.021890784 -0.025773712
000010 4b 5b c9 3b f4 b8 93 bc 2b 1d 34 3d 2f 1e 00 bd
       0.006144916 -0.018032528 0.04397313 -0.031278785

down_blocks.0.conv2.weight f4 [8, 8, 3, 3]
000000 35 6c c7 bd 8c 4f be bd d8 a9 df 3d 5c 43 8f bd
       -0.09737436 -0.09292516 0.10921067 -0.0699527
000010 6f 98 71 bd be c8 fd bd 5e c7 3a be 61 10 fb ba
       -0.058983263 -0.12391804 -0.18240115 -0.0019154662
000020 28 56 59 3d 82 23 7e 3d c6 45 9c 3c a7 f3 73 bb
       0.05306068 0.06204558 0.01907624 -0.0037224086
000030 0b 4b 06 be e9 a7 21 bc 1b 61 54 bd a1 b6 e4 bd
       -0.13114564 -0.009866693 -0.05185042 -0.11167646
000040 15 b8 ea 3d 1f a1 40 be 21 e0 7a be 7e 4a de bd
       0.11460892 -0.18811463 -0.24499561 -0.10854052
000050 f1 51 d3 bd c7 20 fb bd 52 4f 0e 3d d4 66 e8 bd
       -0.103183635 -0.12262111 0.034743614 -0.11347738
000060 f9 75 84 3b 09 a9 b3 3d 09 c7 47 3d e5 db 3d be
       0.0040423837 0.08772475 0.0487738 -0.18540914
000070 b2 3e e6 bd 37 cc 06 3e 1d e0 23 bd b9 6b a5 3d
       -0.11242427 0.1316384 -0.040008653 0.08077187
000080 3d 5a 07 be 97 c9 a0 3d b6 98 8a bd be 3e d5 bd
       -0.13218017 0.0785095 -0.067674085 -0.10412358
000090 1d bf 0a bd 45 04 09 bd 8c ee d0 bc 39 18 62 be
       -0.033873666 -0.033451337 -0.025504373 -0.22079553
0000a0 2e b4 eb 3c 45 6a 05 be 12 78 38 be 12 4c f1 39
       0.02877244 -0.1302882 -0.18014553 0.0004602378
0000b0 49 61 6c be 59 b2 90 be 61 00 54 bd 23 50 51 3d
       -0.23083986 -0.28261068 -0.051758174 0.051101815
0000c0 be b2 1c 3d 21 7d 38 be b2 cd 05 3e f9 6c 31 be
       0.0382564 -0.18016483 0.13066748 -0.17326726
0000d0 5e 8b 1a be c9 b4 0b be a9 1c 10 3e b1 2e 2c be
       -0.15092227 -0.13643183 0.14073433 -0.16814686
0000e0 f7 90 2a be 1c 67 e1 bd 79 6a a9 bd 07 0f b3 3d
       -0.16656862 -0.11005995 -0.08272261 0.087431006
0000f0 6f d7 65 bd 16 4d ae 3d 60 32 07 bd ae ff 8f be
       -0.056113657 0.08510797 -0.033007026 -0.28124756
000100 05 ce 8d ba aa ac 49 3c 3c 1a 18 be c6 90 94 bd
       -0.0010818845 0.012309233 -0.14853758 -0.07254176
000110 27 ce c3 bd e5 9c 5e be 06 0a 24 be 9e bb 50 3d
       -0.09560805 -0.21739538 -0.16019449 0.050960176
000120 e9 dc 4f 3d 24 a3 0b be f4 2a 43 be 55 dd 1d bd
       0.050747786 -0.13636452 -0.19059354 -0.038541157
000130 26 40 4d bd 8f 13 4a 3e 9e e1 49 3e 83 b6 3f 3e
       -0.050110005 0.19734024 0.19714972 0.18721966
000140 c2 3d 1a 3e b0 a6 2b be be 75 4d 3d 7a 3a 95 3d
       0.15062621 -0.16762805 0.050161116 0.07286544
000150 a2 cd f5 3d 2a 13 f4 3d d1 b1 e1 3d ca 05 37 be
       0.12002112 0.11917718 0.11020244 -0.17873302
000160 d5 bf 5e 3d ee 4f 3e 3c 9b 01 6f 3e 7c 3b 62 3e
       0.054382164 0.011615736 0.23340456 0.22093004
000170 52 07 81 3d a8 42 91 bd d6 39 f0 bd 58 95 c7 bd
       0.06300224 -0.07092792 -0.11729781 -0.09745282
000180 32 30 bb 3d 2d 36 21 3e b4 6a 70 bd 90 66 d6 3d
       0.09140052 0.15743323 -0.05869551 0.10468781
000190 e7 0d 53 3d 4c ce 92 3d be 7e d0 bd 49 32 cd 3d
       0.05152693 0.07168254 -0.10180424 0.10019357
0001a0 2d e7 3e 3e db 9d 13 3e 17 c8 62 3d 2b 2e 17 be
       0.18642874 0.14415686 0.0553666 -0.14763705
0001b0 16 b5 30 be 12 24 97 bd a1 64 66 3b 2c 77 64 bc
       -0.17256579 -0.07379927 0.0035155194 -0.013944428
0001c0 8d 1a ab 3d 39 59 36 3e 68 88 5a 3e ef 8b 55 3e
       0.083546735 0.17807473 0.21341097 0.20854162
0001d0 1b e6 8d bc 47 24 cf 3d 89 b7 bc 3d 67 a2 01 3d
       -0.017321637 0.10114341 0.09214694 0.03164902
0001e0 67 34 83 bc 55 7a 46 3d 81 39 f7 bd 76 1f 4a 3d
       -0.016016198 0.04845651 -0.12071515 0.04934641
0001f0 1c 0b e1 3d 93 f8 17 be 0e c8 e9 bd af 47 49 be
       0.10988447 -0.14840917 -0.114151105 -0.19656251
000200 66 3c 36 3e 56 0e e6 bd 81 4c 2a 3e 78 47 3d be
       0.17796478 -0.11233203 0.16630746 -0.18484294
000210 0d af 0c be 59 f8 1d 3e 0f 38 01 3c 6b a0 26 3e
       -0.13738652 0.15426768 0.007886901 0.16272132
000220 3f c6 6d bd 7e db ca bd fe 93 cc bd b2 d7 f0 3d
       -0.05805039 -0.09905146 -0.09989165 0.117598906
000230 ff eb bc 3d e9 8b da 3d 8c 6a 28 be b5 57 f6 bc
       0.092247 0.10671217 -0.16446894 -0.030071119
000240 3e a0 64 3e 58 22 cd 3c a1 a1 80 3b f8 0c 84 3d
       0.22326753 0.02504079 0.0039255177 0.06447786
000250 da 3c 96 3d ab 11 6a 3e bf 47 0d 3e 8a e8 64 bc
       0.07335825 0.22858302 0.137969 -0.013971457
000260 b3 9d 0b 3d cf 1b 3e be da 19 e6 bc 8f 32 2c be
       0.03408594 -0.18565296 -0.028088499 -0.16816162
000270 9d 4f 1a 3e 83 27 28 be 23 14 d0 bc 67 29 f6 3d
       0.15069433 -0.16421323 -0.025400227 0.120196156
000280 1f 11 7e bd f3 63 d6 3d 74 ae 9f bd e7 32 57 3d
       -0.062028047 0.104682826 -0.07796946 0.05253878
000290 5b bb 32 3e a7 16 85 3e 1b 7d 81 bd 4a b1 04 3e
       0.17454283 0.25993845 -0.0632269 0.12958255
0002a0 ba 13 78 bd 51 be 2f bd 4d 39 59 3e b9 38 40 3e
       -0.060565688 -0.04290611 0.21213265 0.18771638
0002b0 86 5f ef bd 8c a4 50 bd 56 8f ed bd 32 65 de 3d
       -0.116881415 -0.050938174 -0.11599605 0.10859145
0002c0 4e ba 28 bd 51 7d d7 bd c8 70 16 be 3c 7d b1 bc
       -0.0411933 -0.10521949 -0.1469146 -0.021666162
0002d0 d2 c6 23 3e c8 fd a0 bc 3a 43 30 3e 0c 62 23 be
       0.15993813 -0.019652262 0.17213145 -0.1595537
0002e0 85 e9 0d 3e 82 75 b4 3d 12 f7 df 3d 8f 90 a1 3d
       0.13858612 0.08811475 0.10935797 0.078889005
0002f0 0f d4 1d 3d 7e 78 ec 3a 33 1f b2 bd c1 52 9b 3d
       0.038532313 0.001804128 -0.08697357 0.075841434
000300 2a 01 bd bd 59 41 eb 3b c2 89 11 3e 09 47 73 3d
       -0.09228738 0.007179421 0.14212707 0.059393916
000310 b7 70 2e be bc 6f 0f 3e 13 39 1e be e5 d9 47 be
       -0.17035185 0.14007467 -0.1545146 -0.19516714
000320 23 53 1c 3e 93 1f 23 ba fa f6 43 3d c0 f9 99 bd
       0.15266089 -0.00062226615 0.047842957 -0.07518339
000330 2e 22 3b 3e 93 a9 6a 3e 4c c7 05 3e 01 02 23 be
       0.18274757 0.2291625 0.13064307 -0.15918733
000340 9e cf ef bd 7e 35 33 be 5f 1a 52 3e 8b 83 35 3e
       -0.11709522 -0.17500874 0.20517872 0.17725961
000350 89 9a 4f bd c0 68 15 3e ca fc 44 3e 01 a9 29 bd
       -0.050684486 0.1459074 0.19237056 -0.04142094
000360 ad 72 10 be 73 fe 90 3c 8f cf e8 bc 91 88 8e 3c
       -0.14106245 0.017699456 -0.028419284 0.017399104
000370 3d bb 0d bb 73 ea 82 3e 6d a8 86 3d 81 41 e7 3d
       -0.0021626495 0.25569496 0.065750934 0.11291791
000380 cf ba 27 3e bb 03 c9 bd 7e b6 f0 bd db 38 8d 3d
       0.16379856 -0.09815165 -0.117535576 0.0689561
000390 a4 55 96 3c 82 7c 2f bd e1 75 55 be 66 3f 20 bd
       0.018351384 -0.04284335 -0.20845748 -0.03912296
0003a0 90 4f 9a 3d bb e0 d3 3b 86 7d ce bd ef 7f f7 bd
       0.075347066 0.006465999 -0.100825354 -0.12084948
0003b0 4c b2 31 be a5 79 3b be 5f ea 29 bc c6 ea fd 3d
       -0.17353171 -0.18308122 -0.01037082 0.12398295
0003c0 c4 61 02 3d 21 54 51 3e eb 10 79 bd 42 0e 1d bd
       0.031831518 0.20442249 -0.06080715 -0.038343675
0003d0 65 8a 54 be 6e 65 31 3e cc b0 57 3d 7b 04 37 be
       -0.20755918 0.17323849 0.05265884 -0.17872803
0003e0 38 86 88 bd 94 6b 32 bd 2c ed 28 be e7 cd 9b 3c
       -0.06666225 -0.043559626 -0.16496724 0.01901908
0003f0 4b bd 01 bd 60 34 ff 3d d9 c9 3a 3e 63 69 80 3d
       -0.031674664 0.124611616 0.18241061 0.06270101

down_blocks.0.conv2.bias f4 [8]
000000 7e d6 e4 3d 6d 57 6b bc 45 bc 96 bd 50 df 62 3c
       0.11173724 -0.014364106 -0.07360128 0.013847187
000010 5a 10 64 3d 51 5c 14 bc 29 3b f6 bd a6 ef ea 3c
       0.055679657 -0.009055213 -0.12023003 0.028678726

down_blocks.0.norm1.weight f4 [8]
000000 ea f3 81 3f a6 60 79 3f 16 19 85 3f 47 7d 63 3f
       1.0152562 0.974131 1.0398281 0.88863033
000010 bc fa 7d 3f 8e db 77 3f 87 c0 7e 3f 30 71 81 3f
       0.99210715 0.9681939 0.99512523 1.0112667

down_blocks.0.norm1.bias f4 [8]
000000 4c 64 f4 bd 91 e7 44 3d ba 5c ec bd 68 c8 86 3d
       -0.119331926 0.0480724 -0.11541124 0.06581193
000010 a4 3b 8e bd ae df 13 3c 92 76 e3 bc 83 f7 7f bd
       -0.06944969 0.009025497 -0.0277665 -0.062491905

down_blocks.0.norm1.running_mean f4 [8]
000000 55 ba 9b 3d 00 48 2d 3d cd 46 36 3d 0c 52 95 39
       0.076038994 0.042304993 0.044501115 0.00028480624
000010 96 2c 1b 3e b6 41 c7 3c 4a 1f 93 3b 58 aa 13 3e
       0.15153727 0.024323326 0.004489814 0.1442045

down_blocks.0.norm1.running_var f4 [8]
000000 78 c0 38 3b 8c c4 ce 3a 29 4f 1b 3b ee 33 31 38
       0.0028190892 0.0015775128 0.0023698306 4.224845e-05
000010 16 44 26 3c cc 3a c2 3a 50 22 06 39 24 96 8d 3c
       0.010148069 0.0014818548 0.00012792018 0.017283507

down_blocks.0.norm2.weight f4 [8]
000000 f8 1c 85 3f 97 37 68 3f cb 70 7e 3f d8 08 71 3f
       1.0399466 0.90709823 0.9939086 0.9415412
000010 cf b9 64 3f c2 f2 75 3f 54 4b 7c 3f 2c 15 7a 3f
       0.8934602 0.96073544 0.9855244 0.97688556

down_blocks.0.norm2.bias f4 [8]
000000 c1 f2 67 be 37 4d b5 bd 38 11 0e be 8f 0f 75 3d
       -0.22651197 -0.08852618 -0.13873756 0.05982929
000010 aa 91 02 3c ee 1d be bd 35 64 0e be 13 f0 b7 3d
       0.007969299 -0.092830524 -0.13905413 0.089813374

down_blocks.0.norm2.running_mean f4 [8]
000000 24 99 af 3f 9e 51 01 3f 85 e2 13 3f 77 3c cf 3e
       1.371861 0.5051516 0.57767516 0.4047582
000010 de 07 80 3e 84 9b e3 3e 39 6f 00 3e dc 56 3b 3f
       0.25006002 0.44454587 0.12542428 0.7317941

down_blocks.0.norm2.running_var f4 [8]
000000 6c 75 ce 3f b4 36 88 3f 0f 29 02 40 3a fe 23 3f
       1.6129584 1.0641694 2.033756 0.64059794
000010 aa 13 84 3e ff 90 63 3f b3 fa f3 3d 1b e8 51 3f
       0.25796252 0.8889312 0.119130515 0.8199479

down_blocks.1.conv1.weight f4 [16, 8, 3, 3]
000000 99 11 f2 3d 76 a0 cf bc 95 e6 b4 bd 2c 64 30 bc
       0.11819763 -0.025345068 -0.088330425 -0.01076607
000010 45 f6 43 3d 6d f9 0b be f2 c7 85 bd 6f ef 0e 3e
       0.047842283 -0.13669367 -0.06532277 0.13958524
000020 39 01 88 3d fb c6 37 be b2 2d 0b be f3 98 b6 3d
       0.06640858 -0.17946999 -0.1359165 0.089158915
000030 fc 15 4d bd 21 ab 30 be e4 89 ce 3d 68 e5 08 be
       -0.050069794 -0.1725278 0.10084894 -0.13368762
000040 cb 65 ae 3d aa b2 25 3d 60 4f e8 3d 6e 46 15 be
       0.08515509 0.04045359 0.113432646 -0.14577648
000050 ed c1 1c be a1 92 45 3d d6 8d f0 3d c0 bb 30 bd
       -0.15308352 0.04823554 0.11745803 -0.043147802
000060 ce 90 fa bd 9a b1 28 be 28 13 e9 3c 31 82 53 be
       -0.122346506 -0.16474 0.028451517 -0.20655133
000070 31 2d cd bd 26 de 98 bc 3c a8 38 bd 94 db 3f be
       -0.10018385 -0.018660616 -0.045082316 -0.18736106
000080 ec 31 6d 3d 3a 9c fc bc e4 51 6b be d7 b4 03 be
       0.057908937 -0.030836213 -0.22980458 -0.12861954
000090 8b f9 d1 bd 0c 93 94 bd ba d7 c1 3d 85 e6 9d 3d
       -0.10252675 -0.072546095 0.09464975 0.07709984
0000a0 77 c3 fc bd e1 b9 3c bc 69 cc 2a bc c1 34 16 be
       -0.123419695 -0.011518926 -0.010424712 -0.14668562
0000b0 5e fb bc 3d 00 c3 0d 3d 6a 6d f3 bc e9 e3 e3 bd
       0.09227632 0.034609795 -0.029715259 -0.11127455
0000c0 f1 0a 5f bd cd 17 e7 bd ef 99 bf 3d cb e7 ff bd
       -0.054453794 -0.112838365 0.093555324 -0.12495383
0000d0 0d a1 8e bd d6 4e 69 bd a8 8c 19 bd 6f d9 1b be
       -0.06964312 -0.05695995 -0.037487656 -0.15219663
0000e0 7e af d1 3d c9 c1 e5 3d 71 ac d8 bd d4 17 a7 bd
       0.102385506 0.11218602 -0.105797656 -0.08158842
0000f0 84 98 42 be 07 fc 0e be d4 8e 9a 3d a8 35 2b bd
       -0.19003493 -0.13963328 0.075467736 -0.041799217
000100 a6 09 20 3e ec ee 8c 3b 96 57 fb bd a7 c0 df 3d
       0.1562868 0.0043009426 -0.12272565 0.109254174
000110 5c 65 8e bc 2c d0 c5 3d a7 52 46 bd 38 ce f5 3d
       -0.017382316 0.09658846 -0.048418667 0.12002224
000120 eb 3e c6 bd 38 d3 b7 3d ca c5 d8 3d e2 6f b8 bd
       -0.096799694 0.08975834 0.105846 -0.09005715
000130 24 c9 f4 bd d4 d1 83 3c 7f 31 11 be 53 54 06 bd
       -0.11952427 0.016091265 -0.14179038 -0.03279526
000140 b2 63 43 bc 1a 0b 3e 3e 65 45 bf 3b 17 f7 e6 3c
       -0.011925625 0.18558922 0.00583713 0.028193993
000150 60 fa ad 3d 37 95 be 3d f6 2c b0 3d 8f 5a ca bd
       0.08495021 0.09305804 0.086023256 -0.09880554
000160 33 04 9c 3d e1 40 1f be f9 20 19 3d 05 1b 08 bd
       0.076179884 -0.15552093 0.03738496 -0.033228893
000170 8d 81 8f bd 7b 20 d5 3d 4b ec 7b bd 53 b2 13 3d
       -0.07007132 0.10406586 -0.061504643 0.036058735
000180 da 6e c5 bc 33 a5 43 3e 27 c7 0a be 09 59 d9 3c
       -0.02410071 0.19105987 -0.13552533 0.026531713
000190 13 75 03 be 6e 49 e1 bd 43 e6 3e 3e 62 1b 8d 3c
       -0.12837629 -0.11000334 0.18642525 0.017224971
0001a0 a3 20 6e bd e0 c9 34 bd 27 93 88 bc de 01 ef bd
       -0.058136594 -0.044137836 -0.01667173 -0.11670278
0001b0 17 bf ed bd 49 00 f7 3d 23 b8 15 3d 3e 9a 2c 3e
       -0.11608713 0.12060601 0.03655256 0.16855714
0001c0 de c6 36 bd f6 e8 c8 bd cb c3 ce bd dd 2d 8b 3c
       -0.04462325 -0.09810059 -0.10095938 0.016989643
0001d0 51 bd 87 3d 87 12 19 be 31 f4 54 3c da 0a 9d bc
       0.06627906 -0.14948474 0.012997673 -0.019170213
0001e0 6f 31 25 3d 50 90 db 39 3a 01 6c bd 0b e0 b6 3c
       0.040330347 0.00041878456 -0.057618357 0.022323629
0001f0 cb fc 19 3d a3 e7 04 3b d1 12 ba 3d f0 c7 06 bd
       0.037594598 0.0020279668 0.0908562 -0.03290552
000200 48 c3 0e be de 10 fc 3a 00 e3 33 bd 1a 46 e7 bc
       -0.13941681 0.0019231101 -0.043917656 -0.02823167
000210 b6 c5 be 3d fb ba 90 bd d0 c0 68 3c ed 34 26 3e
       0.09315054 -0.07066914 0.014206126 0.16231127
000220 df 2b 40 3c 0b 19 8f bd 1b 2f 14 bd d6 26 c8 bd
       0.01172921 -0.069871984 -0.036177736 -0.09773032
000230 d3 60 c2 bd 30 5c 2e bd bb ec e1 bd e5 7c 72 bd
       -0.09491124 -0.042568386 -0.11031481 -0.05920114
000240 7f f4 0b be d6 a8 96 bc d5 be 1e 3e 07 55 fb bd
       -0.13667487 -0.018391054 0.15502484 -0.12272077
000250 3f 71 38 3e 4b a5 2a 3e ac b0 e2 3d aa 4f a5 bd
       0.1801195 0.16664617 0.11068854 -0.08071835
000260 be 6d ba 3b 44 a0 c3 3d 5e a9 1c bc 96 7e f3 bd
       0.005689352 0.095520526 -0.009561865 -0.11889379
000270 50 3f 5f bb 82 ac ae bd 89 4c 24 3e c5 64 40 3d
       -0.0034064837 -0.08528997 0.16044821 0.0469711
000280 b1 66 d9 3d 7b 23 9d 3d 55 fa d6 3d ba ea c2 bd
       0.1061529 0.07672783 0.10496966 -0.09517427
000290 ed c1 60 bc ec 46 d3 3d b9 54 c1 3d 58 b2 b5 bc
       -0.0137181105 0.10316262 0.09439988 -0.022179767
0002a0 34 fe aa 3d 2d 4b 38 3e aa 3a c8 3d 1f 28 35 be
       0.08349267 0.17997427 0.09776814 -0.17691086
0002b0 ab 5e bc bc 95 52 c5 3d 00 1d 04 3e 33 9d 2c 3c
       -0.02299436 0.09634892 0.12901688 0.010535526
0002c0 ec 83 98 3c 8e 20 da 3c 14 c8 77 3d c7 0d 4f bd
       0.018617593 0.026626851 0.060493544 -0.05055025
0002d0 c8 46 0a 3e cc ac 6f bd e7 45 8a 3d 55 c5 07 3e
       0.13503563 -0.0585144 0.06751614 0.1325887
0002e0 d8 54 95 bd da d1 1f be b4 f2 38 bd 99 e4 82 bd
       -0.07291573 -0.15607396 -0.045153335 -0.06391258
0002f0 0d 1b 18 be 20 af b3 bd 67 1f 43 bd 94 29 c1 3d
       -0.14854069 -0.08773637 -0.04763737 0.094317585
000300 b6 d5 10 3e af a0 c1 3d c1 e9 f5 3d 28 b0 a5 bc
       0.14144024 0.09454476 0.12007476 -0.0202256
000310 18 62 39 bd 3b 9b e5 3d e9 7f 1c be aa 58 00 3e
       -0.045259565 0.112112485 -0.15283169 0.12533823
000320 d4 d0 d2 3d 28 fe aa bd bb 05 d9 bd 23 c8 d4 3c
       0.10293737 -0.08349258 -0.10596796 0.025974339
000330 e9 da 25 3e 25 60 00 3e 5a 4e a7 3d 7a 71 44 be
       0.16196789 0.12536676 0.08169241 -0.19183913
000340 9f aa 8e 3d 1d 0e 0d be 2d db 57 3d db 51 15 be
       0.06966137 -0.13774915 0.052699257 -0.14582007
000350 61 6a d5 bd 70 dc 39 be e0 dc f4 bd 1a 09 11 3d
       -0.10420681 -0.18150496 -0.11956191 0.03540907
000360 04 69 ee bd fe 76 0a bc 33 c7 8f bd b8 fc a7 3d
       -0.11641124 -0.0084512215 -0.07020416 0.08202499
000370 7d c8 2f bd ab 12 b7 3d e1 f2 0c 3e 3e 75 19 be
       -0.04291581 0.089391075 0.13764526 -0.1498613
000380 84 69 b6 3d 32 71 f4 bc ee 3e c9 bc 79 1e 8b 3d
       0.08906844 -0.029839132 -0.02456614 0.067929216
000390 28 94 f3 bd fe 79 2e be 8d 7a 6f 3d 31 d8 28 be
       -0.11893493 -0.17038724 0.058466483 -0.1648872
0003a0 22 ad d6 3d c0 44 8b 3c c1 62 1b be 74 58 8b 3d
       0.10482241 0.017000556 -0.1517439 0.068039805
0003b0 69 97 a8 3d 52 68 9c 3d 77 be e2 3d e9 8e 15 3e
       0.08232004 0.07637085 0.110714845 0.14605297
0003c0 27 b4 11 be c7 99 20 bc cf 04 11 3e 04 49 32 3d
       -0.14228879 -0.009802288 0.1416199 0.043526664
0003d0 7e cc 89 bd f7 b3 33 3e f5 24 f6 3c 6a 96 64 bd
       -0.06728457 0.1754912 0.03004692 -0.05580751
0003e0 42 ed c2 bd 39 c7 18 bd 1e ce c7 3d e0 a9 6f bd
       -0.095179096 -0.03729937 0.097561106 -0.058511615
0003f0 db 10 d7 bd 2d 2f 16 3e 7d 29 f7 bd 08 97 18 3d
       -0.10501262 0.14666434 -0.1206846 0.03725341

down_blocks.1.conv1.bias f4 [16]
000000 47 e1 1a 3d 86 86 dd 3c be ba 63 bd 18 b3 20 bb
       0.037812497 0.027041685 -0.055598013 -0.002452081
000010 33 dc 6f bd 7c 95 24 3d e2 73 17 bd 6c 75 6e bd
       -0.058559608 0.040181622 -0.03697575 -0.05821745
000020 44 6d 5b bd a1 c9 21 3d 5b 4b 45 3d 90 18 98 bc
       -0.053571 0.03949893 0.048167568 -0.0185664
000030 5c c0 a2 bc fe 59 17 bd ba 4d 9e bc 94 e1 a8 bb
       -0.019867115 -0.036951058 -0.019324172 -0.005153844

down_blocks.1.conv2.weight f4 [16, 16, 3, 3]
000000 70 ec d7 bd cd ea 12 be 14 65 ee 3d 70 53 eb bd
       -0.10543144 -0.14347382 0.11640373 -0.11490524
000010 ae 34 b3 3d 76 a8 8d 3b a3 ce f5 bd 73 8d 9b 3d
       0.08750282 0.0043230606 -0.120023035 0.07595339
000020 ee a4 96 bd fb 83 9c bd 92 58 35 be c8 ab 5d bd
       -0.073556766 -0.07642361 -0.17709568 -0.0541189
000030 4d 33 84 3c d7 bc 2f be 6e 9b 44 3d 6d 72 4b be
       0.016137743 -0.1716188 0.04799979 -0.19867869
000040 59 35 39 be a1 e6 a9 bd cd 3d 55 bd ce 7b de 3d
       -0.18086757 -0.08295942 -0.05206089 0.108634576
000050 0b 3c 32 bd 1d fe a8 3d 6b 0d ea 3d ec db 3a bc
       -0.043514293 0.08251593 0.114283405 -0.0114049725
000060 dd 76 ec 3d 60 de c7 bd a9 58 e4 3d 03 16 9a 3d
       0.11546109 -0.097592115 0.11149723 0.0752373
000070 d9 74 d9 3c 4c 29 de 3d 3e 75 74 3d 9a 42 80 3d
       0.026544975 0.108477205 0.059682123 0.06262703
000080 f7 49 11 3e 72 25 ea 3d a3 74 a9 bd 68 51 ba 3d
       0.14188372 0.114329234 -0.082742 0.09097558
000090 12 6c 2b bd 66 fe 31 3e f5 ca 40 3e e1 a8 8f bd
       -0.04185111 0.17382202 0.18827422 -0.07014633
0000a0 fd 5b 0e 3d 75 d9 f7 bb 1e f5 89 bb 19 d2 9b 3d
       0.034755696 -0.0075637647 -0.0042101284 0.07608432
0000b0 c8 02 f3 3c d1 6c 0e 3d d7 53 e2 3d 9c fc 8c 3b
       0.029664412 0.034771744 0.110511474 0.0043025743
0000c0 86 50 91 bd 90 6a 64 bb 1c a7 7d 3d b0 6c 77 3d
       -0.07095437 -0.0034853555 0.061926946 0.060406387
0000d0 2e 5e a6 bd cc e5 c2 bd 8b d6 f2 bd 43 f6 03 3d
       -0.08123432 -0.095164865 -0.11857327 0.032217275
0000e0 b6 60 a3 bd ea 3d 38 bd 4e 2c 96 bd c1 dd c4 3d
       -0.079774305 -0.04498092 -0.07332669 0.09612609
0000f0 07 e3 02 bd bd 4a 66 bd 6d 8a 07 bd cc 90 9e bd
       -0.03195479 -0.05622362 -0.033090997 -0.077424616
000100 72 02 22 be d7 b1 00 be 88 f9 8c 3d b8 ed 21 be
       -0.15821245 -0.1256784 0.06883532 -0.15813339
000110 77 c0 5d 3d 29 e7 99 bb 89 68 34 be a4 e4 7a 3c
       0.054138627 -0.004696746 -0.17618002 0.015313301
000120 8a 39 8e bd a4 5d df 3d e2 7c 07 3e 3f 86 20 ba
       -0.069445685 0.109065324 0.13231233 -0.000612352
000130 96 31 cf bd ba c1 e1 bd ec 5b c3 3d 15 4c 62 3d
       -0.1011688 -0.110232785 0.09539017 0.05524834
000140 44 a9 be 3c a0 14 ef 3d 80 83 04 be d5 3c 42 bd
       0.023274072 0.11673856 -0.12940788 -0.047421295
000150 9d 0d b1 bd ba 38 72 39 79 48 83 bd e7 b4 a9 3c
       -0.08645175 0.00023100051 -0.064103074 0.020716144
000160 ea b5 65 bd e5 aa e1 bd 34 85 ec bd 1c 8e e4 3d
       -0.05608169 -0.11018924 -0.11548844 0.11159918
000170 f1 f9 46 bd da 48 b7 3d 85 9e 17 be 68 c7 63 bc
       -0.048578206 0.08949442 -0.14806564 -0.013902523
000180 98 8f b7 bc 77 12 9b bc dc 52 13 be bb 89 db bd
       -0.022407338 -0.018929703 -0.14387077 -0.107196294
000190 cd 2a 02 be 84 49 a4 3c 34 54 af bd ae ca c5 bd
       -0.1271164 0.020054586 -0.08560982 -0.09657799
0001a0 85 3e 15 3d 65 39 84 3d 6c c3 08 be 2e be 32 bd
       0.036436576 0.0645626 -0.13355798 -0.0436384
0001b0 80 06 a3 3d b5 c0 ad bc 1a e6 84 3d 2e a9 15 be
       0.07960224 -0.021210054 0.06489201 -0.14615318
0001c0 b7 16 aa bd fd cc 1f 3e ab 69 15 3d 44 26 ed 3d
       -0.08305114 0.1560554 0.036477726 0.11579564
0001d0 a2 ba 32 bd 42 a8 b1 bd 69 fd e1 bc d2 51 1f 3d
       -0.04363502 -0.08674671 -0.027586656 0.03889639
0001e0 71 8a a4 3d 8c 69 e4 bd 4a 1e 35 be 27 5d 34 be
       0.08034218 -0.11152944 -0.17687336 -0.1761366
0001f0 fe 3b f7 3c 5e 16 a3 3d f6 6c b7 3c fe 48 8f 3d
       0.030179974 0.079632506 0.022390824 0.06996344
000200 5b a1 11 3e 74 a6 3e bd 38 eb 9d bd 61 38 91 bd
       0.14221708 -0.04654546 -0.0771088 -0.070908315
000210 3d cd ab 3b 42 25 5c bc 44 05 5c bc fe 15 e5 3d
       0.005242972 -0.013436617 -0.01342899 0.11185835
000220 ae 99 e9 bc 5d 6f db 3d dc 6a 03 3d 74 53 6b bd
       -0.028515663 0.107146 0.03208433 -0.057452634
000230 48 f2 28 bc 55 b7 f0 bd 40 1a b2 3d 94 76 cd bc
       -0.010311671 -0.11753718 0.08696413 -0.025080957
000240 26 f9 5f bd e2 a5 a2 3d 8d 5d 70 3c 9e c4 be 3c
       -0.054680966 0.07941796 0.014670742 0.023287114
000250 08 82 73 bc 1d de 55 3d 1f 12 6c 3c d5 b5 2d bc
       -0.014862545 0.052213777 0.014408617 -0.010602434
000260 57 e2 21 bd 0f a1 0e be 62 dc 86 bb a1 df ad bd
       -0.039522495 -0.13928626 -0.004115627 -0.084899195
000270 9d 47 0f 3d fd a8 0b bd 89 57 78 3d 6d 00 64 3c
       0.034980405 -0.034096707 0.060630355 0.013916117
000280 2c 85 ad 3d c9 c9 a6 3d ab d2 12 3e 7a e9 88 bd
       0.08472666 0.08143956 0.14338176 -0.06685157
000290 bb 80 e1 bd af 54 1f bd 67 90 57 3d 0f 35 66 bd
       -0.110108815 -0.03889912 0.052627947 -0.056202944
0002a0 73 5a 0a 3e af 0e ee 3d 73 65 b4 3d a8 5c ea 3d
       0.13511066 0.116238944 0.088084124 0.11443454
0002b0 81 a1 b9 bd be 91 13 3d 1d 39 2a 3e c0 f8 30 3e
       -0.090640076 0.036027662 0.1662335 0.1728239
0002c0 59 1d ad bd dc 54 d2 3d 9e ad 29 3d 4f 83 37 3e
       -0.08452863 0.10270092 0.04142534 0.17921184
0002d0 e2 7b 17 3e 17 4f 0d 3e 75 a2 e0 3d 39 d6 9f bc
       0.14793351 0.13799702 0.10968486 -0.019511329
0002e0 70 e2 46 bd 93 ba 05 3d 5d 05 06 3e 67 e8 c5 3c
       -0.04855579 0.032648634 0.13087983 0.02415867
0002f0 3d 69 eb 3d 6f 18 4d 3d 86 ff 83 bc 88 37 92 bd
       0.11494682 0.05007213 -0.016113054 -0.07139498
000300 ee c2 10 3e 62 d8 d0 3c 85 fc dc bd 99 34 f9 bd
       0.1413686 0.025493804 -0.10790352 -0.12168235
000310 be 1e 3d 3b 3e 0a 0c 3e 40 fe a1 3d ea f8 11 3e
       0.0028857435 0.13675782 0.079098225 0.1425511
000320 da 49 2e 3d 6e 7f 56 3c 9f f6 05 be 3a 8d c5 3d
       0.0425509 0.013091905 -0.1308236 0.096460775
000330 8c be 04 3e 29 ba 79 3c 0b 17 9f 3d b1 28 57 3d
       0.12963313 0.015242138 0.07768067 0.05252904
000340 80 88 1c 3e 56 c0 a5 3d 4c 59 80 bd 3e fb 06 3e
       0.15286446 0.08093326 -0.06267032 0.13181779
000350 9c c9 f4 bd 1e 67 a2 ba e0 22 e7 bd 5d b3 bc 3d
       -0.119525164 -0.001239035 -0.11285949 0.09213898
000360 aa d9 30 3b 7b b7 5a bd de e3 6c bc 8f 09 9f 3d
       0.0026985207 -0.053397637 -0.014458625 0.07765495
000370 18 ad 0e bd bc b8 dc 3d 11 f4 16 3e 32 b2 29 bd
       -0.034833044 0.10777423 0.14741541 -0.041429706
000380 0e c9 0b be bd 26 16 be 0e c2 8a bd 14 ea 01 3e
       -0.13650915 -0.14663215 -0.06775294 0.1268695
000390 0b c2 a4 bd 4d 0d db bc 0a 2e d6 bb 0f 1f bf bd
       -0.08044823 -0.02673974 -0.00653625 -0.09332096
0003a0 79 91 0e be de 66 2f 3d 1b 05 d8 bd 89 e7 b1 3c
       -0.13922681 0.04282271 -0.10547849 0.02171685
0003b0 d6 61 9e 3c dc 38 96 3b f7 24 0c be 22 9a 8f 3c
       0.019333761 0.004584415 -0.13685976 0.017529551
0003c0 85 eb 14 be d6 1a c9 bd cd 33 ed bd 89 b5 22 3c
       -0.14542969 -0.09819572 -0.11582146 0.009930977
0003d0 66 0d de 3d 03 54 84 bc 48 d6 0d 3e 4c 03 e6 bd
       0.10842399 -0.016153341 0.13851273 -0.112310976
0003e0 5a 17 40 bd 6a a9 63 bd 65 24 33 bd f4 35 1b bc
       -0.04689727 -0.055581488 -0.04373588 -0.009473313
0003f0 da 4c 7c 3c 6a 2f 2d bd 27 40 ea 3d 3f 6b 1c 3e
       0.015399182 -0.042281546 0.11438017 0.15275286

down_blocks.1.conv2.bias f4 [16]
000000 86 d6 63 3d 68 a7 86 3b 1f b1 55 3d bc 6c 1e bc
       0.055624507 0.004109312 0.05217087 -0.009669479
000010 9a 91 87 bc 2f 14 6e bd 3f 7e 19 3c c7 9e 06 bd
       -0.01654892 -0.058124717 0.009368478 -0.032866266
000020 5d 5c 64 bd 1f d5 3a bb 87 05 25 3c 7f e0 0c 3d
       -0.055752147 -0.0028508378 0.010072119 0.034393784
000030 78 9d 41 3d 03 3f 1d 3c 74 3d 66 bd 98 bd 3e bd
       0.047269315 0.009597543 -0.05621095 -0.04656753

down_blocks.1.norm1.weight f4 [16]
000000 57 df 7e 3f 3a 45 83 3f 65 b7 80 3f 1f 87 81 3f
       0.9955954 1.0255501 1.0055968 1.0119361
000010 2d e1 85 3f 5a f8 77 3f 20 21 81 3f 09 22 7b 3f
       1.0459343 0.9686333 1.0088234 0.9809881
000020 e4 3d 82 3f 1a d4 80 3f db 5c 80 3f 1a d6 78 3f
       1.0175138 1.0064728 1.0028337 0.97201693
000030 1d 9e 7b 3f 72 90 80 3f a7 d2 7c 3f bf 6c 76 3f
       0.98288137 1.0044081 0.9875893 0.96259683

down_blocks.1.norm1.bias f4 [16]
000000 98 d6 0c bd 21 ed 8e bd bb 13 0c bd d8 e7 93 ba
       -0.03438434 -0.069788225 -0.034198504 -0.0011284305
000010 61 8d 70 3d a8 b6 aa bc 85 fb 36 bd d4 ea 58 bd
       0.05872858 -0.02083905 -0.04467346 -0.052958325
000020 8c 71 64 bd d2 68 05 bc 85 7c bf 3c 73 42 33 bd
       -0.05577235 -0.008142667 0.023374805 -0.043764543
000030 67 ac 2e bd 41 97 04 3d ef e1 81 bd 4f 8f 14 3c
       -0.042644884 0.03237081 -0.063419215 0.009067371

down_blocks.1.norm1.running_mean f4 [16]
000000 d3 bb 43 3f 2d 96 81 3e 02 70 e7 3e 7f 84 16 3e
       0.7645847 0.25309888 0.45202643 0.14698981
000010 4d f7 79 3e ac 70 d0 3e a3 e2 6b 3e 59 44 27 3f
       0.24410744 0.40710962 0.23035674 0.65338665
000020 3b ab 09 3e 36 4a 0a 3f ea b4 21 3f 2f ec 0a 3f
       0.13444225 0.54019487 0.6316668 0.5426664
000030 f5 df 91 3e ec c2 75 3e 87 a5 a3 3e ef 63 38 3e
       0.28491178 0.24000138 0.31962225 0.18006872

down_blocks.1.norm1.running_var f4 [16]
000000 a7 52 a9 3e 21 6f 00 3e 95 57 c7 3f 44 0c 07 3e
       0.3307087 0.12542392 1.5573603 0.13188273
000010 3b a6 35 3e 59 89 a2 3e 24 e8 f9 3e 81 d0 63 3f
       0.17739193 0.31745413 0.48809922 0.88990027
000020 d5 8a 89 3e 12 0f 21 3e 10 b5 a5 3e bc 20 fc 3f
       0.26863733 0.15728405 0.32364702 1.969749
000030 fc 06 7c 3f 6d 3d 07 3e cc c2 1b 3f 33 51 77 3e
       0.9844816 0.13207026 0.6084411 0.24152069

down_blocks.1.norm2.weight f4 [16]
000000 fd e3 81 3f d4 d4 80 3f 20 da 7d 3f 1c f4 7e 3f
       1.0147702 1.006495 0.9916096 0.9959123
000010 82 4b 84 3f 35 b2 7e 3f ba 06 80 3f 3f c0 81 3f
       1.0335543 0.9949067 1.0002053 1.0136794
000020 47 57 7a 3f 6b be 80 3f e8 05 7c 3f 6e 49 84 3f
       0.97789425 1.0058111 0.9844651 1.0334909
000030 1d ab 83 3f a9 e9 74 3f 3e 90 6d 3f ea 6d 7c 3f
       1.0286595 0.9566904 0.9279822 0.98605216

down_blocks.1.norm2.bias f4 [16]
000000 0e 7d ad 3c 9a 0f 82 bd 70 79 33 3d 08 75 8a bc
       0.021177795 -0.06350632 0.043816984 -0.016901508
000010 5c ea 4e bd dc 53 98 bd 8d 42 cf bb b0 ba 8b bd
       -0.05051647 -0.0743787 -0.006325072 -0.06822717
000020 2b 47 52 bc 20 94 ff bc 6e 5d c8 3b 8b 2d d6 3d
       -0.012834351 -0.031198561 0.0061146533 0.104579054
000030 ac 77 06 3d 16 84 90 3d 70 b0 bd bd 77 38 a4 bd
       0.03282897 0.070564434 -0.092621684 -0.08018582

down_blocks.1.norm2.running_mean f4 [16]
000000 12 d4 1d 3f ec 3d 48 3f c0 9d 79 3f 8e 42 9c 3e
       0.6165172 0.78219485 0.9750633 0.30519527
000010 8b 3c d7 3e ac 53 b0 3e 9a 3e a3 3e f8 e9 96 3e
       0.42038378 0.34438837 0.318837 0.2947538
000020 71 0e a9 3e 77 90 ae 3e 23 f6 1b 3f 85 8b ce 3e
       0.3301883 0.34094593 0.6092245 0.4034082
000030 6b 28 5a 3f 36 60 cc 3e 4f 5b 9e 3e 41 c0 d6 3e
       0.8521792 0.39917153 0.30929038 0.41943553

down_blocks.1.norm2.running_var f4 [16]
000000 da 5f aa 3f ac 1f 6d 40 65 b6 4c 3f c2 e9 af 3e
       1.3310502 3.705058 0.7996581 0.3435803
000010 e6 f9 7f 3f e7 41 00 40 ae 4a 65 3f 82 10 d7 3f
       0.9999069 2.0040224 0.8956708 1.6801913
000020 ea 48 df 3f e0 9a 65 3e c0 24 c3 3f 6b e5 7d 3e
       1.7444127 0.22422361 1.524559 0.24794547
000030 8d 49 f1 3e 80 97 3d 3f 3b 35 28 3f 91 60 79 3f
       0.47126427 0.74059296 0.65706223 0.97412974

down_blocks.2.conv1.weight f4 [32, 16, 3, 3]
000000 5b 5d 5f bd 7b 43 9a 3c 0b 18 a2 3d 21 f1 b0 3a
       -0.05453239 0.018831005 0.07914742 0.0013499596
000010 b6 57 b9 bd f3 25 cb 3d 7a ca a6 3d 50 e3 06 bd
       -0.09049933 0.099193476 0.08144088 -0.032931626
000020 4a e1 22 bd b4 5e 0b bd 54 fb c3 3d 1b 21 f3 3d
       -0.039765634 -0.034025863 0.095694214 0.11871549
000030 6d 4e a4 bd ce 47 4f bd 12 48 c4 bd 6f ac b6 3d
       -0.08022771 -0.050605588 -0.09584059 0.08919608
000040 af 64 53 bd 37 a5 a1 bd 6a 8a ae 3d f5 c6 7f 3d
       -0.05160969 -0.0789284 0.08522494 0.0624456
000050 ac 2c 86 bd b7 7f 71 bd 69 9a 12 3d 33 e4 06 3d
       -0.06551489 -0.05895969 0.03579179 0.03293247
000060 ec 1e 11 be f7 f1 4c bd e6 94 a7 bd 48 d9 6f bd
       -0.14171952 -0.050035443 -0.08182697 -0.058556825
000070 54 22 bc 3d 51 e3 01 3e f5 df 03 be e2 a4 a0 3d
       0.09186235 0.1268437 -0.12878402 0.07843949
000080 1a 98 8a 3d db 1a b8 bd 86 a5 29 bd 22 ef a9 3b
       0.06767292 -0.08989497 -0.04141762 0.0051859776
000090 6e a1 db bc 7c 8d 5e bd 93 0a 01 3e 0a 67 08 3e
       -0.026810374 -0.05433415 0.1260169 0.13320556
0000a0 80 c5 16 bd d3 c0 61 bd a4 f3 57 bd cc 15 e9 bd
       -0.036809444 -0.055115532 -0.05272259 -0.113811105
0000b0 3c f2 a3 bd b9 6b 41 3b 61 9c c8 3d 57 4e 63 bd
       -0.08005187 0.002951367 0.09795452 -0.055494633
0000c0 17 19 c4 3b 65 de 2f bb 14 6a 81 3c 25 4d af bd
       0.0059844363 -0.0026835438 0.015797652 -0.08559636
0000d0 77 6c a4 bd e2 be 8d bd 9e 29 99 bc f2 4a 02 bc
       -0.080285005 -0.06921174 -0.018696602 -0.007952439
0000e0 6d 0f 71 3d 70 dd ba bd b1 da d9 3d 95 4a d6 bd
       0.0588526 -0.09124267 0.10637415 -0.10463444
0000f0 5b 67 04 3c 94 c2 80 3d a1 d5 f8 bd e4 6f 01 3e
       0.0080812825 0.06287113 -0.121501215 0.12640339
000100 fe c4 26 bc 76 97 79 bc 7b b0 4f bd 98 9c 9b 3d
       -0.010178803 -0.015233865 -0.050705414 0.07598227
000110 1c 54 21 bd 05 37 8a 3d 9b a2 12 bd bf f4 60 bd
       -0.039386854 0.067487754 -0.035799604 -0.054920908
000120 2a 8c cd 3d b6 74 61 bd 66 ab 6e 3d cb 53 e2 bd
       0.100365 -0.055042945 0.058268927 -0.110511385
000130 5c db 0f bd af df 8a bc 41 ce 67 bc f5 f6 3c bd
       -0.035121307 -0.016952364 -0.014148296 -0.046133954
000140 c1 b4 f1 bd 09 f0 05 3d cb 73 31 3d 35 ad a3 3c
       -0.11802054 0.03269962 0.04332332 0.019980052
000150 51 93 0e 3d 86 eb 84 bb 36 c9 b7 3d 71 03 89 3c
       0.03480846 -0.004056397 0.08973925 0.016725274
000160 be 7d b8 bd 20 cd b8 3d f7 a9 16 bd e3 2a ab 3d
       -0.090083584 0.090234995 -0.036783185 0.08357789
000170 69 76 ee 3d 26 96 7f 3d cb 15 c4 bd b1 56 92 3d
       0.11643679 0.062399052 -0.09574469 0.07145441
000180 cb 01 68 bd 78 25 c9 3d 35 d8 23 bd 31 5c 60 bd
       -0.056642335 0.098216 -0.040001113 -0.05477542
000190 ab 05 76 bc 01 82 6c bd 4c 69 ad bd 4b f5 d4 bd
       -0.015016 -0.05774117 -0.084673494 -0.103983484
0001a0 96 c7 2d bd 03 94 67 3d 43 77 6d 3d 22 68 7d bd
       -0.042426668 0.05653764 0.057975065 -0.061866887
0001b0 4e 19 cb bd 47 e3 9e 3d c6 65 88 3c 00 23 01 3d
       -0.09916936 0.077581935 0.016650092 0.03152752
0001c0 00 31 30 3d ba 08 44 3d 76 59 c1 bd a1 9a e9 bd
       0.04301548 0.047859885 -0.094408914 -0.11406446
0001d0 17 a7 4c 3b bd 15 df 3d 55 26 fb 3d 29 7c 01 3e
       0.0031227523 0.10892818 0.12263171 0.1264502
0001e0 8d 2c 17 3e 78 87 3b 3d db 90 a9 3d 9a ce 7b bd
       0.14763089 0.04578349 0.08279582 -0.061476327
0001f0 ce a6 a5 bd 55 e6 e1 bd b7 e2 c0 3d 3e 3e 88 bd
       -0.08088456 -0.110302605 0.094182424 -0.06652497
000200 96 c2 38 bd 65 65 91 bd c6 ee ae bd fd f4 31 bd
       -0.045107447 -0.070994176 -0.08541636 -0.04344653
000210 67 5c 06 3d 90 e4 38 bd bd af 0c bb 0c 45 d2 3d
       0.032802965 -0.04513985 -0.0021467053 0.10267076
000220 4b 66 8e 3c 8d 2a 7f 3c d0 b3 ce bd 02 36 06 be
       0.017382761 0.01557411 -0.1009289 -0.1310654
000230 b0 d8 03 3d c8 48 1f 3d 90 1e 84 bc 62 6d 8c bd
       0.03218907 0.03888777 -0.016127855 -0.068568006
000240 ab 42 d9 bd c5 5f d1 3d d1 30 ce 3c 70 bb 0d be
       -0.10608419 0.10223345 0.025169762 -0.13841033
000250 e6 a8 db 3d a0 ed f1 3d f6 60 dc 3d 67 56 a5 3d
       0.10725574 0.118129015 0.10760681 0.080731206
000260 f0 1f e9 3c de ef 8e 3d 11 6e ee bd de 12 ce 3d
       0.028457612 0.06979345 -0.11642087 0.100621924
000270 1f 57 a0 3d 6e 3d 44 bd 50 e9 96 bd 75 d1 40 bd
       0.07829117 -0.047910146 -0.073687196 -0.047074754
000280 7a 29 10 be e0 27 aa 3c a3 0a e6 3d c4 d5 26 3e
       -0.14078322 0.020770967 0.112324975 0.16292483
000290 30 2e 01 3e 7b f1 f9 bc d1 46 e9 3d e9 b1 c0 3d
       0.12615275 -0.030510655 0.1139046 0.09408934
0002a0 0e 48 9a bd bc 08 33 3d 9d 5a 5c 3d f5 f7 11 bc
       -0.075332746 0.0437095 0.053797353 -0.008909215
0002b0 1d a8 6f bd db d3 59 3c 34 4c 44 bd d6 0c a7 bd
       -0.058509935 0.013295139 -0.047924235 -0.08156745
0002c0 7f 6c 11 3d ca 09 91 bd c6 fd 2a 3c d2 44 66 3d
       0.03550386 -0.07081945 0.010436481 0.056217976
0002d0 3a ad 4d 3d a3 fb 22 be 75 6f 3f 3b 61 29 89 3d
       0.05021403 -0.15916304 0.002921072 0.066973455
0002e0 6d 35 f8 bd 01 34 10 be 57 7a c9 bd 9b dd a3 bc
       -0.12119565 -0.14082338 -0.098377876 -0.02000313
0002f0 d1 ba 30 bd 92 d0 99 bd 99 5d 2b 3d 8a d4 9b bd
       -0.043146912 -0.07510485 0.04183731 -0.07608898
000300 a5 42 65 3d 54 9f 9d bd 65 80 d4 bd be 3e 9a 3d
       0.05597176 -0.07696405 -0.10376052 0.075314984
000310 8c 06 f3 bd 40 08 94 bd 19 46 04 be a8 b0 7f 3d
       -0.11866483 -0.07228136 -0.12917365 0.062424332
000320 64 d6 b9 3d a4 68 c3 3c fa fe b6 bd e5 21 f2 bc
       0.09074095 0.023853607 -0.08935352 -0.029557178
000330 c1 7f 90 3d b9 31 ad bd cf a1 c7 3d 40 1c 03 be
       0.07055617 -0.084567495 0.097476594 -0.12803745
000340 28 7c a1 bd a7 d7 82 3d 4e 2c 34 bd 5d 78 54 3d
       -0.07885009 0.06388789 -0.043987565 0.0518726
000350 c9 78 4c bd ac 90 31 3d 0d 4d cb 3c 5a 29 8e 3d
       -0.049919877 0.04335086 0.024817014 0.06941481
000360 24 78 06 be 7b 0a d0 bd 80 e2 34 3d ee 33 74 bd
       -0.13131768 -0.10158249 0.04416132 -0.059619837
000370 6d 02 32 bc f9 9b be bd b6 a2 92 3d 90 73 fa 3b
       -0.010864836 -0.09307093 0.07159941 0.0076431707
000380 73 07 82 bd e5 7a c5 bd 37 41 a2 bd 37 77 e4 bd
       -0.06349077 -0.09642581 -0.07922595 -0.11155551
000390 db df b5 bc 3a 45 4d 3d 4a 08 a3 bd a9 d1 f9 3c
       -0.02220147 0.050114848 -0.079605654 0.030495482
0003a0 17 a8 cc bc 74 36 87 3c d7 33 17 ba 9e 95 b6 bd
       -0.024982495 0.016505457 -0.00057679176 -0.08915256
0003b0 84 45 6e 3d 76 a4 9e bd b5 fb bf bc 42 87 b0 bb
       0.058171764 -0.07746212 -0.023435453 -0.0053872177
0003c0 94 4e bc bd 13 48 b5 3d 70 0d f3 bd b6 fd c6 3d
       -0.09194675 0.08851638 -0.118677974 0.0971636
0003d0 b0 a3 5b 3d c2 99 e0 3d 00 81 de bd 36 bb 6b bc
       0.0536229 0.10966827 -0.108644485 -0.014387896
0003e0 e8 e6 04 3d 92 cd 85 3c 69 1a 70 bd 1e 6a 56 3d
       0.03244677 0.016333375 -0.058618937 0.052347295
0003f0 f8 9f fb 3d 0d 74 10 3e 99 1c 71 3d 4a e8 8d 3c
       0.12286371 0.1410677 0.058865163 0.017322678

down_blocks.2.conv1.bias f4 [32]
000000 e9 87 98 3c 63 58 c3 bc 02 13 d1 39 21 7c 5d 3d
       0.018619495 -0.023845857 0.00039877748 0.054073457
000010 a6 9d 33 bd fc 1f 6b bb 67 97 48 bd 56 ed 11 bd
       -0.043851517 -0.0035877218 -0.048972514 -0.03562673
000020 c5 c9 7e b9 48 c6 cf bb fe 10 ce 3c 1b 25 fb 3c
       -0.00024298493 -0.0063407756 0.025154587 0.030657342
000030 e3 e3 03 bd 36 38 10 bb 6c 1e 0f bd 46 55 4f 3d
       -0.03219975 -0.002200616 -0.034941122 0.050618432
000040 61 40 80 3c aa 7c 61 bd 2f 3d 73 bc a7 ba 51 bd
       0.015655698 -0.05505053 -0.01484613 -0.051203396
000050 56 32 58 3c dc e2 56 3d 6b 49 e9 bc 3e f9 26 3d
       0.013195595 0.052462444 -0.028477391 0.04076504
000060 f0 35 c3 bc 9c 38 09 3c 65 b0 aa 3c de c5 fd bc
       -0.02382943 0.008375313 0.020836065 -0.03097814
000070 22 39 d7 3c ce a4 58 bd a6 e8 0e 3d ef fb 2b bd
       0.02627236 -0.052891545 0.03488984 -0.04198831

down_blocks.2.conv2.weight f4 [32, 32, 3, 3]
000000 b1 28 57 3d 58 5b d3 bb b9 74 7c 3d 6b 25 45 3c
       0.05252904 -0.006450098 0.061634753 0.012032847
000010 a3 c8 8a bd 74 4e 65 3b 73 0e 92 3d 1b 52 94 bb
       -0.0677655 0.0034989389 0.07131662 -0.0045263893
000020 84 04 3c bd fa 20 0d 3e bb 6e ad 3d f1 52 0d 3d
       -0.045902744 0.13782111 0.08468386 0.034502927
000030 5b 52 d0 3d 33 36 49 3d ee dc d3 3d cb 2f 7d b9
       0.10171958 0.049123954 0.10344873 -0.00024145764
000040 6c bc 81 3d 85 b9 be 3d 9f e0 d1 bb 00 16 8d 3d
       0.06334767 0.09312729 -0.0064049507 0.06888962
000050 6b 09 20 bd 8d 0c 65 bd dc de 3b 3d 2b b7 1f bd
       -0.03907148 -0.055920172 0.045866832 -0.038993042
000060 3f 66 53 bd 65 d7 bf 3d de 0d f7 bc e7 37 8f 3d
       -0.05161118 0.09367255 -0.03015798 0.069930844
000070 b6 aa 98 bd 86 b5 b4 bd d1 43 5a bd 81 0c bd 3d
       -0.074544355 -0.08823685 -0.05328733 0.092309006
000080 50 5e b2 3d 8a bc 0a 3d 88 e9 84 3d 07 37 94 bd
       0.08709395 0.03387121 0.06489855 -0.07237058
000090 3f 2b 08 3d c0 57 e2 bd 56 ea 7b bd bb 5d a2 3d
       0.033244368 -0.11051893 -0.061502777 0.07928034
0000a0 2b e0 a5 bd 8d b0 87 3c 18 d7 b0 bd aa 0e 92 bd
       -0.08099397 0.016563678 -0.08634776 -0.07131703
0000b0 6c 10 eb bd 8c be e5 3d 31 bf de 3d 2d 50 a4 3d
       -0.114777416 0.112179846 0.108763106 0.08023105
0000c0 a5 58 14 3e 4c c7 2b 3d 45 6e 2a 3c 42 04 ae 3d
       0.1448694 0.04193811 0.010402267 0.08496906
0000d0 d1 a0 b7 3d a2 87 9e bc cb c9 b3 3d 4a 19 62 3c
       0.0896622 -0.019351784 0.08778723 0.013799975
0000e0 03 9f 75 bd 02 a3 42 bd 79 f8 09 bd 81 a5 be 3d
       -0.0599661 -0.047518738 -0.033684228 0.09308911
0000f0 24 29 1a 3d af b4 c0 3b 0a e9 ce 3d ab ab af 3d
       0.03763689 0.005880914 0.101030424 0.08577665
000100 18 59 c8 bd e0 e6 bf bb ee 95 e1 3a 42 da 95 3c
       -0.09782618 -0.00585638 0.001721082 0.01829255
000110 fe 34 f5 3c 46 d1 03 bc 77 71 c6 bd 3d 81 32 bd
       0.029932495 -0.0080455 -0.096896105 -0.043580282
000120 0e b6 ff bb 36 af 9c bd 9e 33 6d bc 2b 40 42 3c
       -0.007803685 -0.07650606 -0.0144776385 0.011856119
000130 01 fd e7 3c 75 4f 9d bd 8b fe 86 3d 86 c0 9b 3c
       0.028318884 -0.07681171 0.06591519 0.0190127
000140 dd d0 64 3d 42 a3 8c 3d 12 5a ad 3d 90 ba a1 3d
       0.05586325 0.068670765 0.08464445 0.07896912
000150 8c b0 83 3d 72 35 7e 3d 25 b3 92 3d 5f ae ec 3c
       0.06430158 0.06206269 0.07163075 0.02889174
000160 a9 f8 77 bd b6 c3 9a bd c8 f4 e9 3c 2e 8e aa 3d
       -0.060539875 -0.0755686 0.028559104 0.083279
000170 e3 95 c7 bb fc 65 27 bd 7d d2 d6 3d bd 2e f2 3c
       -0.006090866 -0.040868744 0.10489366 0.029563302
000180 fa e9 4f bd f0 cb 46 bd 69 e5 23 bd 4f c6 19 3d
       -0.050760247 -0.048534334 -0.040013704 0.037542637
000190 fd 8c 80 3d 46 d9 ad bd d5 a5 5b bd fe 37 bd 3d
       0.062768914 -0.08488707 -0.053624947 0.09239195
0001a0 f1 92 27 3d a1 fd d2 3c 3a 4b 73 3d ad a8 d6 bd
       0.04091162 0.025755705 0.059397914 -0.10481391
0001b0 22 7f 71 3c ca b4 9f 3d 89 e0 8d bd 54 c2 97 3d
       0.0147397835 0.07798155 -0.06927592 0.07410112
0001c0 20 6c aa 3d f8 14 b3 3d 1b 79 90 3b 79 2b 6c 3c
       0.083214045 0.08744234 0.004408968 0.014414662
0001d0 11 2b cd 3c 8b 8c d1 bd e3 6f 68 bd 06 51 a8 bc
       0.02504495 -0.102318846 -0.05674733 -0.020546447
0001e0 90 ba ce 3c f2 e8 47 3d 15 bc c3 bd a3 6d 5f 3d
       0.025235444 0.04880614 -0.09557358 0.054547917
0001f0 ed 21 ee 3b a0 47 1e bd b1 b2 8e bd e1 ac fc bb
       0.007267228 -0.038642526 -0.069676764 -0.0077110385
000200 9c 8c 8e bc 66 a3 93 bd 53 59 a6 3d 84 2e 2b bd
       -0.017401032 -0.072089 0.08122506 -0.041792408
000210 e6 ad cb 3c 3a 47 1d bc f6 a8 42 3a bf f1 67 bd
       0.024863195 -0.009599501 0.000742569 -0.05662703
000220 b9 33 44 bc 47 58 49 3d 4c db 83 bb f5 ca a0 bd
       -0.011975222 0.049156453 -0.004023945 -0.07851211
000230 34 52 57 3d dc a7 a0 3d 1c 2a df bc d9 34 52 bb
       0.05256863 0.07844517 -0.027241759 -0.0032074957
000240 5c 1f d3 bc a7 91 9f 3c d8 b0 81 bd 61 42 89 bc
       -0.02577179 0.019478632 -0.063325584 -0.016755285
000250 35 90 cb bd 4e 6b 21 3d ed dd cc 3b f0 16 ee bd
       -0.09939615 0.039408974 0.0062520416 -0.11625469
000260 19 fe 9b bd eb ed 88 3d ac 34 92 bd 78 a4 93 bd
       -0.07616825 0.06686004 -0.071389526 -0.07209104
000270 33 de 8d bc a9 a5 74 bc 07 95 d4 3c c9 cc 8b bd
       -0.017317867 -0.014932075 0.025949968 -0.06826169
000280 68 b7 88 3d be 83 9f 3d f5 ed e6 bd d0 dc ee 3b
       0.06675607 0.077888 -0.112758555 0.0072895065
000290 0b 0a c8 3d 60 bc 84 3d 82 d5 dd bc 8a 51 b2 3d
       0.097675405 0.06481242 -0.027079348 0.087069586
0002a0 d3 13 0b bd b4 a8 b8 bd 82 36 b8 bd 2d 93 9d 3c
       -0.033954453 -0.090165526 -0.089947715 0.019235218
0002b0 79 1c b5 bd ec d2 0b 3c 3d 2f 74 3d 9a c6 64 bd
       -0.08843321 0.008534174 0.059615362 -0.055853464
0002c0 f3 30 ab 3d 11 81 9f bc c9 d0 e0 3b 52 3a 9a bd
       0.08358946 -0.019470723 0.0068608266 -0.07530655
0002d0 60 db bf 3d 29 6d 26 bc a3 4a 0e 3d 66 a5 59 bd
       0.09368014 -0.010157862 0.034739148 -0.053136252
0002e0 99 84 84 3c e5 4e bf ba be f9 8a 3d 84 57 b8 bd
       0.016176509 -0.0014595656 0.06785916 -0.09001067
0002f0 ef 24 e2 3d 48 90 d4 3d c1 6c 41 3d f6 ad d4 3d
       0.11042201 0.10379082 0.047222856 0.10384743
000300 98 c6 2b bb e8 43 37 bc 7c 51 79 3d d6 a4 b0 3c
       -0.00262109 -0.011185624 0.060868725 0.021562975
000310 15 cb 9b bd 35 b6 aa bd ea f5 db 3d 6c 26 b9 3c
       -0.07607094 -0.083355345 0.10740264 0.022601329
000320 34 6d fb bc b4 75 18 3d 2b 17 37 3d 5f b2 1f 3c
       -0.03069172 0.037221625 0.04469983 0.009747117
000330 68 81 b8 bb 35 a7 8d bd 07 28 0f bd 5e 00 57 bc
       -0.005630661 -0.06916658 -0.034950282 -0.013122646
000340 41 d2 41 3c f2 e0 6e bd 91 32 d1 bd 6b e2 4f 3d
       0.011829914 -0.058319993 -0.10214723 0.05075304
000350 b5 ce 32 3d c2 88 8e 3c 6c 9e 6a 3d 3b 19 db bd
       0.043654162 0.017399196 0.05727999 -0.10698172
000360 34 cf 60 3d f9 83 dc bd cf 04 16 b8 af 9d e4 bd
       0.054885104 -0.10767359 -3.5767265e-05 -0.11162888
000370 9d 37 1a 3c 61 7d d8 bd 75 2c 6c bd 98 ec 1a bd
       0.009412673 -0.10570789 -0.057659585 -0.03782329
000380 03 9a 41 bd 52 1d c2 3d b1 62 95 ba 26 7c 73 bd
       -0.047266018 0.09478249 -0.001139721 -0.05944457
000390 cd ff cc 3c a2 36 f7 3b 7d ad 3c 3c ee 64 71 3d
       0.025024319 0.0075443545 0.011515972 0.058934145
0003a0 71 3f 40 bd 2e be 85 3d 85 ab 17 3e e3 62 e1 3d
       -0.046935502 0.065304145 0.14811523 0.11005189
0003b0 48 77 b6 bb 51 a7 3c 3c b7 cd 4f bd 45 44 bc 3d
       -0.0055684187 0.011514501 -0.050733294 0.09192709
0003c0 4d c1 01 3e 01 00 56 3d ed 1c 30 bd 52 ed 10 bc
       0.12671395 0.052246097 -0.042996336 -0.008845644
0003d0 3c 10 ce 3c c9 37 89 bd 6b 02 da bc 60 9f e7 bb
       0.025154226 -0.06700093 -0.026612481 -0.0070685595
0003e0 25 ae e2 b9 5e a9 cc 3c 67 d3 b7 bc 55 a9 4e 3d
       -0.00043235827 0.024983104 -0.022439672 0.050454456
0003f0 14 d0 1f 3d da 5e 2a 3c f6 7d 08 3d 62 60 4e 3d
       0.0390168 0.010398591 0.03332325 0.050384887

down_blocks.2.conv2.bias f4 [32]
000000 c1 87 9f bc 70 e3 82 3c 74 31 62 bd 04 b6 47 bd
       -0.019473912 0.015977591 -0.055222943 -0.048757568
000010 3f 43 c6 bc ea 7b ce 3b 92 c0 f7 3b 9e f6 35 bd
       -0.024201987 0.006301393 0.007560798 -0.044424646
000020 63 22 7f 3d cd d2 24 3c ee b0 4b 3c 9d 16 d1 bc
       0.062288653 0.010060024 0.01243232 -0.025523478
000030 3f c6 89 bd da f0 07 bd 67 89 8c 3d 41 ea 55 bd
       -0.067272656 -0.03318868 0.06862145 -0.052225355
000040 ce 04 ad 3c ad 03 9c 3c ed 90 67 3a 2a aa f4 bc
       0.021120455 0.019044721 0.00088335463 -0.029866297
000050 30 1e a6 3c da 28 51 bd e2 b4 25 bc 33 80 30 bd
       0.020278066 -0.05106435 -0.010113927 -0.04309101
000060 78 15 05 bd 96 47 43 bc 8c b3 6e 3d a9 cb 1e 3c
       -0.032491177 -0.011918923 0.058276698 0.009692111
000070 4f 18 a1 bb 29 9b 0e bd cc c3 d3 3c 8b fc df 3c
       -0.004916228 -0.03481594 0.0258502 0.027342102
