src/data/unetv5.pt (torch, 541763 bytes, 109 tensors)

conv_final.weight f4 [1, 8, 1, 1]
-2.345884 2.2253184 -1.5666332 -1.3997871 2.107493 2.118752 -1.7584635 1.7162871
00000000: f722 16c0 9e6b 0e40 7087 c8bf 392c b3bf
00000010: 2ae1 0640 a299 0740 5515 e1bf 4caf db3f

down_blocks.0.conv1.weight f4 [8, 3, 3, 3]
-0.43617576 -0.4280115 -0.25696343 0.20271885 -0.13571073 -0.09753154 0.18912861 -0.45426247
-0.3244467 -0.25254077 -0.60627675 -0.9689601 1.7911631 1.2422415 -0.21127917 2.0736866
1.1512012 -0.5303606 -0.72630066 -0.14221442 -0.035225935 0.46156433 1.1197169 0.075633824
1.1536323 0.8732757 -0.035474457 -0.26029146 0.008149909 -0.08191638 0.045700166 -0.16794059
-0.27180305 -0.110200234 -0.18700153 -0.034294184 -0.1758109 -0.14211117 -0.12605022 -0.08304306
0.07621505 0.12641563 -0.19739482 0.018985664 -0.2342696 -0.054143406 -0.13950211 -0.20808055
0.14716476 -0.14629108 0.11169155 -0.1240085 -0.20298317 -0.017606685 0.41893274 -0.37771028
-0.41523266 0.4150348 -0.548522 -0.50675344 -0.01881865 -0.8777116 -0.57686484 0.123491175
-0.24459209 0.03505275 0.82135206 0.06736928 -0.32137173 0.23682208 -0.40329313 -0.3419823
0.18254423 -0.45327544 -0.21923928 0.59977895 -0.3838351 -0.34812844 0.6112648 -0.08164855
-0.48369476 -0.054587636 -0.101562165 -0.26332346 0.10125237 -0.08953548 0.036664587 -0.26976448
0.088012695 -0.10088622 -0.06532705 -0.18247437 -0.024125248 -0.23898812 -0.1744386 0.113260046
-0.1765219 0.09757315 -0.18651941 0.16789265 -0.23316555 -0.19891146 0.027122881 0.12704116
-0.22995333 -0.16197473 -0.16490503 -0.12836705 -0.23027974 0.21992394 0.091713436 -0.5556471
0.44967297 0.88666946 -0.5536702 0.19950433 0.45602143 -0.7841673 -0.67994404 -0.49598128
-0.9469424 0.65201384 1.3732239 -0.64134145 0.24305598 0.8178679 -0.07012897 -0.30629775
0.024857873 0.08653037 0.7352744 0.9856102 -0.11273164 0.6972519 1.1055051 -0.012788839
-0.37613285 -0.14309682 0.38315386 0.41902632 -0.113355815 -0.3300379 -0.63902277 -0.45865443
-0.00947588 -0.71724486 -0.9981752 1.2868804 1.2548126 0.00393917 0.546534 0.83946705
-0.17228329 -0.040791236 -0.26214755 -0.5108198 0.40631709 1.0450565 0.29107317 0.53638643
0.79038185 0.009919831 -0.6438524 -0.39970165 -0.29157656 -0.2495279 -0.27147698 -0.40989766
-0.51296806 -0.15755664 -0.17562911 -0.8318195 -0.5189841 -0.92763776 -0.39382407 -0.32365453
-0.7999837 -0.70239675 -0.37919924 -0.6065928 -0.49619347 0.3184785 0.11756412 0.8939121
1.248301 0.35218847 0.21793768 0.54154474 -0.12613012 -0.3224327 -0.06593602 0.0027104367
0.07858338 -0.30965912 -0.14774345 -0.1781255 -0.14599462 -0.29218766 -0.36758342 -0.21965435
-0.11713768 -0.02956 -0.05422673 -0.25087866 -0.30666187 -0.26413032 -0.019682592 -0.2186981
-0.16372022 -0.32778957 -0.24701452 -0.16160928 -0.08488942 -0.25183636 -0.27718824 -0.11715619
00000000: 6e52 dfbe 5324 dbbe b690 83be 8895 4f3e
00000010: c1f7 0abe 9ebe c7bd eeaa 413e 1795 e8be
00000020: e11d a6be 064d 81be f434 1bbf c50d 78bf
00000030: d544 e53f c501 9f3f 9159 58be 48b7 0440
00000040: 905a 933f b6c5 07bf d7ee 39bf a8a0 11be
00000050: 1249 10bd 2952 ec3e e252 8f3f e8e5 9a3d
00000060: 39aa 933f ff8e 5f3f aa4d 11bd ec44 85be
00000070: 3287 053c c6c3 a7bd 1930 3b3d 9ef8 2bbe
00000080: c529 8bbe a9b0 e1bd 547d 3fbe 0f78 0cbd
00000090: c607 34be 9785 11be 4f13 01be 7b12 aabd
000000a0: a316 9c3d 1973 013e de21 4abe d387 9b3c
000000b0: 5fe4 6fbe 7ac5 5dbd a4d9 0ebe 1113 55be
000000c0: 5cb2 163e 54cd 15be 8abe e43d 2bf8 fdbd
000000d0: d2da 4fbe e53b 90bc 5a7e d63e 3e63 c1be
000000e0: 6099 d4be 717f d43e f06b 0cbf 98ba 01bf
000000f0: 9229 9abc b5b1 60bf 6aad 13bf f1e8 fc3d
00000100: 5976 7abe 7993 0f3d 2144 523f e8f8 893d
00000110: d68a a4be 7d81 723e 707c cebe 4e18 afbe
00000120: e0ec 3a3e b813 e8be 4380 60be 1d8b 193f
00000130: 0986 c4be e43d b2be da7b 1c3f 5b37 a7bd
00000140: d7a6 f7be 4997 5fbd d3ff cfbd 55d2 86be
00000150: 675d cf3d 615e b7bd 9b2d 163d 921e 8abe
00000160: 0040 b43d 6f9d cebd 30ca 85bd 90da 3abe
00000170: 50a2 c5bc 4db9 74be 08a0 32be e2f4 e73d
00000180: 28c2 34be 6fd4 c73d f2fe 3ebe 0dec 2b3e
00000190: f3c2 6ebe 72af 4bbe ce30 de3c 1417 023e
000001a0: e378 6bbe b4dc 25be dddc 28be a772 03be
000001b0: 74ce 6bbe be33 613e 41d4 bb3d e33e 0ebf
000001c0: 893b e63e c5fc 623f 55bd 0dbf dd4a 4c3e
000001d0: a47b e93e 30bf 48bf d010 2ebf 42f1 fdbe
000001e0: d16a 72bf 61ea 263f cdc5 af3f f42e 24bf
000001f0: abe3 783e ca5f 513f c79f 8fbd 0fd3 9cbe
00000200: bda2 cb3c d636 b13d f13a 3c3f f350 7c3f
00000210: d9df e6bd 1a7f 323f 3181 8d3f 4788 51bc
00000220: 7c94 c0be f987 12be be2c c43e 9e8a d63e
00000230: 1827 e8bd bafa a8be ff96 23bf c1d4 eabe
00000240: b940 1bbc 5c9d 37bf 6988 7fbf 7fb8 a43f
00000250: b39d a03f 2714 813b a7e9 0b3f 50e7 563f
00000260: 086b 30be b614 27bd 3438 86be 16c5 02bf
00000270: cb08 d03e 69c4 853f 8b07 953e 9f50 093f
00000280: 7756 4a3f c986 223c 83d3 24bf b2a5 ccbe
00000290: 8649 95be 3e84 7fbe 08ff 8abe 1bde d1be
000002a0: e051 03bf 8756 21be 1ed8 33be 1ff2 54bf
000002b0: 24dc 04bf ab79 6dbf 4fa3 c9be 0cb6 a5be
000002c0: bbcb 4cbf 46d0 33bf 6726 c2be aa49 1bbf
000002d0: 120d febe 9d0f a33e 75c5 f03d 6cd7 643f
000002e0: 54c8 9f3f 0c52 b43e 0e2b 5f3e ada2 0a3f
000002f0: 4128 01be e615 a5be 7709 87bd 95a1 313b
00000300: 53f0 a03d a48b 9ebe 0f4a 17be 8866 36be
00000310: 9d7f 15be 9f99 95be e533 bcbe 12ed 60be
00000320: e1e5 efbd d027 f2bc d91c 5ebd 2b73 80be
00000330: c902 9dbe 173c 87be 633d a1bc 65f2 5fbe
00000340: 46a6 27be 09d4 a7be 60f1 7cbe e77c 25be
00000350: 81da adbd b2f0 80be 9eeb 8dbe 96ef efbd

down_blocks.0.conv1.bias f4 [8]
0.52881014 -0.19295368 0.47425145 -0.07709876 -0.057833638 1.7248806 0.22777481 -0.10275171
00000000: 1a60 073f a695 45be 16d1 f23e f4e5 9dbd
00000010: f7e2 6cbd e3c8 dc3f cd3d 693e 7d6f d2bd

down_blocks.0.conv2.weight f4 [8, 8, 3, 3]
-0.23724219 -0.073945776 -0.1502978 -0.031515397 0.054728795 0.16218361 -0.10223102 -0.11585393
0.052710563 0.7324132 1.0461236 0.79271245 0.5408882 0.8310676 0.8646677 0.6380364
0.7301627 1.1074327 -0.020897675 -0.13812725 -0.11605653 -0.24427919 -0.18067311 -0.035949457
0.1999536 -0.096970245 -0.24741274 -0.94667125 -0.7422392 -1.066553 -0.6843713 -0.6924641
-0.7078677 -0.694404 -0.9735592 -0.94979423 -0.07898362 -0.074759014 0.25981382 -0.15311463
-0.020270074 -0.20484595 0.027888495 -0.18898381 -0.03536585 -0.096541986 0.038419213 0.0199158
0.06121713 0.17127028 -0.09490747 -0.27339396 -0.17095302 -0.09126602 0.40889812 0.47276077
0.23759535 0.12071689 0.22981668 0.3439658 0.32282475 0.3836185 0.15853195 0.53026706
0.75787497 0.62229556 0.83730704 0.48944348 0.50432134 0.5641225 0.66132414 0.59467274
-0.15599704 -0.26583996 -0.2630043 -0.14595515 -0.1108052 -0.24691838 -0.29708937 -0.38090953
-0.1982643 0.78887767 1.0755702 0.7618248 0.6044532 0.74948317 0.8402912 0.6618727
0.66333455 1.0135546 0.4767557 -0.38274825 -0.2481973 0.20114595 -0.2833669 -0.30178782
0.45108816 0.24790968 -0.4673553 -0.81046 -0.6623568 -0.7674838 -0.77368665 -0.95384496
-0.7611216 -0.8086117 -0.9801864 -1.0272272 -0.24177673 0.29763576 0.119790405 -0.31715223
0.32522306 -0.051151644 -0.17184384 0.24623612 0.027253544 -0.18361813 -0.08503758 0.10452368
-0.32551265 -0.33240747 -0.3655685 -0.4436375 -0.5315684 -0.14448641 0.09693512 0.33768398
-0.17939946 0.21966946 0.19201525 -0.14955817 -0.027974399 0.025355797 0.1442274 0.47363985
0.7949165 0.60524577 0.71935534 0.81051344 0.62704974 0.6028064 0.76365775 0.60878783
-0.3268579 -0.54688406 0.09628791 0.0668725 0.2342746 -0.11565802 -0.022322524 0.21087128
-0.11916426 1.1293837 1.1520314 1.0989717 1.2400104 1.0267074 1.0278306 1.2938502
1.0147675 0.8325093 -0.3702961 -0.56857365 0.3758567 0.56689215 -0.0850853 -0.34707096
0.5949763 0.56857514 -0.2146761 -0.7848431 -0.91383135 -0.9430947 -1.1714381 -1.1991054
-0.83655447 -1.4484617 -1.3170446 -0.8144818 0.37697718 0.4871819 0.09536443 0.17782164
0.443042 0.04561733 -0.30414006 0.07313144 -0.18776087 -0.26597655 0.13507189 0.2504234
-0.2396829 0.0659446 0.20610227 -0.22450083 -0.27126867 -0.2927391 -0.0009775622 0.16455398
0.016479867 0.41172484 0.3506916 0.31706494 0.24189256 0.193088 -0.015769051 0.9080411
0.650518 0.90201366 0.9860407 0.89323837 0.6107251 0.9564259 1.134699 0.6600071
-0.61886865 1.098663 2.302322 -0.36711735 0.46986535 0.8860943 -0.86264825 -0.50280964
-0.0639221 -0.048916247 -0.19936888 0.097647704 -0.1237553 0.23246166 0.21324325 0.14323246
0.31259882 0.19629888 -0.52412385 -0.26912332 0.89852697 -0.06464614 -0.26244318 0.21588275
0.036328293 -0.18963535 -0.23557438 0.10742881 0.06985771 -0.1182692 -0.30317602 -0.2340192
-0.29202038 0.0033623534 -0.17981379 -0.41077197 1.5843722 2.5568802 0.34560084 1.1723266
00000000: 9eef 72be e270 97bd abe7 19be 4a16 01bd
00000010: 4d2b 603d 7613 263e 7f5e d1bd d344 edbd
00000020: 08e7 573d 6e7f 3b3f 61e7 853f 34ef 4a3f
00000030: a677 0a3f d9c0 543f dd5a 5d3f 5a56 233f
00000040: f1eb 3a3f 5bc0 8d3f 9a31 abbc 3b71 0dbe
00000050: 0caf edbd 5324 7abe 5f02 39be bd3f 13bd
00000060: a3c0 4c3e 5698 c6bd c459 7dbe 0c59 72bf
00000070: 6303 3ebf cf84 88bf f532 2fbf 5445 31bf
00000080: d136 35bf 76c4 31bf 2d3b 79bf b725 73bf
00000090: 2ac2 a1bd 411b 99bd 5106 853e 15ca 1cbe
000000a0: 6d0d a6bc 23c3 51be 6a76 e43c f984 41be
000000b0: c8db 10bd ceb7 c5bd 775d 1d3d 7626 a33c
000000c0: d0be 7a3d 7a61 2f3e d95e c2bd 4bfa 8bbe
000000d0: 4f0e 2fbe aee9 babd 185b d13e b30d f23e
000000e0: 324c 733e 6b3a f73d 1055 6b3e 491c b03e
000000f0: 4949 a53e a569 c43e 3356 223e 95bf 073f
00000100: 1804 423f c34e 1f3f c159 563f 5698 fa3e
00000110: 341b 013f 556a 103f 8a4c 293f 793c 183f
00000120: b0bd 1fbe 2d1c 88be 80a8 86be 4475 15be
00000130: d6ed e2bd 2cd8 7cbe 191c 98be 9306 c3be
00000140: cc05 4bbe e3f3 493f 49ac 893f f306 433f
00000150: 72bd 1a3f 21de 3f3f 531d 573f 7d70 293f
00000160: 4bd0 293f 28bc 813f 5319 f43e 94f7 c3be
00000170: 6f27 7ebe 34f9 4d3e 7715 91be ef83 9abe
00000180: 07f5 e63e 09dc 7d3e 3249 efbe 4e7a 4fbf
00000190: 3790 29bf d179 44bf 5410 46bf 2f2f 74bf
000001a0: ddd8 42bf 2d01 4fbf 7fed 7abf 2e7c 83bf
000001b0: 5294 77be b763 983e ac54 f53d c761 a2be
000001c0: a383 a63e 6384 51bd d5f7 2fbe 5225 7c3e
000001d0: d342 df3c 6406 3cbe 2f28 aebd 8310 d63d
000001e0: 98a9 a6be 5031 aabe cb2b bbbe 7424 e3be
000001f0: de14 08bf 3ff4 13be ec85 c63d eae4 ac3e
00000200: 7eb4 37be 08f1 603e a59f 443e c725 19be
00000210: 912a e5bc f6b6 cf3c 59b0 133e ec80 f23e
00000220: a67f 4b3f 63f1 1a3f ac27 383f cf7d 4f3f
00000230: 5586 203f 8551 1a3f 137f 433f 85d9 1b3f
00000240: eb59 a7be 9800 0cbf 9932 c53d 73f4 883d
00000250: aee5 6f3e 1dde ecbd badd b6bc a4ee 573e
00000260: 640c f4bd a58f 903f c475 933f 1bab 8c3f
00000270: a9b8 9e3f 266b 833f f48f 833f e29c a53f
00000280: e7e3 813f 541f 553f 7397 bdbe 0b8e 11bf
00000290: 4a70 c03e d81f 113f 3441 aebd 49b3 b1be
000002a0: 5e50 183f 248e 113f 0dd4 5bbe 7aeb 48bf
000002b0: daf0 69bf a76e 71bf aff1 95bf 497c 99bf
000002c0: 6f28 56bf 3167 b9bf eb94 a8bf e181 50bf
000002d0: 2703 c13e e86f f93e 6d4e c33d e016 363e
000002e0: 67d6 e23e 3dd9 3a3d 3fb8 9bbe f0c5 953d
000002f0: 6344 40be 142e 88be 4950 0a3e 7f37 803e
00000300: 6f6f 75be f60d 873d 790c 533e 8ce3 65be
00000310: bae3 8abe e6e1 95be 8b21 80ba d780 283e
00000320: c900 873c 99cd d23e d98d b33e 5656 a23e
00000330: afb2 773e dcb8 453e 192e 81bc 6275 683f
00000340: 5988 263f 5eea 663f 2a6d 7c3f 45ab 643f
00000350: 7b58 1c3f 54d8 743f d13d 913f 3af6 283f
00000360: 2d6e 1ebf fda0 8c3f 3e59 1340 cef6 bbbe
00000370: 3192 f03e 13d7 623f 84d6 5cbf 22b8 00bf
00000380: 97e9 82bd 675c 48bd 5b27 4cbe 85fb c73d
00000390: 6b73 fdbd 6e0a 6e3e 705c 5a3e 88ab 123e
000003a0: f40c a03e 9302 493e fb2c 06bf 88ca 89be
000003b0: dd05 663f 3265 84bd f45e 86be 5e10 5d3e
000003c0: facc 143d c52f 42be 693a 71be a303 dc3d
000003d0: 8f11 8f3d 1f37 f2bd e339 9bbe bba2 6fbe
000003e0: b283 95be ee5a 5c3b 1b21 38be b450 d2be
000003f0: b5cc ca3f eda3 2340 98f2 b03e cc0e 963f

down_blocks.0.conv2.bias f4 [8]
-0.9349214 -0.8382129 -1.3083215 -0.31504673 -0.20591035 -1.1666758 -0.06836258 -0.42908105
00000000: 0257 6fbf 1f95 56bf 1477 a7bf ce4d a1be
00000010: 2ada 52be a255 95bf ae01 8cbd 83b0 dbbe

down_blocks.0.norm1.weight f4 [8]
0.8473612 0.9136571 0.19585654 0.91862303 1.1650263 0.536424 0.1614397 0.8530342
00000000: aaec 583f 6fe5 693f 9e8e 483e e12a 6b3f
00000010: 951f 953f 1553 093f 7350 253e 7360 5a3f

down_blocks.0.norm1.bias f4 [8]
-0.78125167 -1.0372744 -0.24058549 0.8945776 -0.92473423 -0.807584 -0.59156245 -0.9109728
00000000: 1c00 48bf 68c5 84bf 0b5c 76be 0a03 653f
00000010: 62bb 6cbf d3bd 4ebf a370 17bf 8335 69bf

down_blocks.0.norm1.running_mean f4 [8]
1.4394523 6e-45 0.08077607 6e-45 0.926851 2.2492967 0.015196642 6e-45
00000000: f93f b83f 0400 0000 ed6d a53d 0400 0000
00000010: 1b46 6d3f 7af4 0f40 56fb 783c 0400 0000

down_blocks.0.norm1.running_var f4 [8]
0.56495166 6e-45 0.02465028 6e-45 0.44914344 0.22067969 0.0026990988 6e-45
00000000: aca0 103f 0400 0000 62ef c93c 0400 0000
00000010: 21f6 e53e dbf9 613e 5de3 303b 0400 0000

down_blocks.0.norm2.weight f4 [8]
0.40331918 0.3446657 0.016911736 1.0791355 0.78698134 0.19150467 1.1528549 0.36143705
00000000: da7f ce3e 0678 b03e 7b8a 8a3c 1d21 8a3f
00000010: 9c77 493f cd19 443e c090 933f 470e b93e

down_blocks.0.norm2.bias f4 [8]
-0.5877587 -0.3474749 -0.9835369 -2.261604 1.0248445 -0.71473163 -0.3698434 0.78741974
00000000: 5b77 16bf 3be8 b1be 13c9 7bbf 1fbe 10c0
00000010: 1b2e 833f a7f8 36bf 1d5c bdbe 5794 493f

down_blocks.0.norm2.running_mean f4 [8]
6e-45 6e-45 6e-45 0.6928261 0.12994587 1.3597845e-09 3.0634973 0.09137896
00000000: 0400 0000 0400 0000 0400 0000 0d5d 313f
00000010: 8810 053e 2ae3 ba30 5710 4440 e424 bb3d

down_blocks.0.norm2.running_var f4 [8]
6e-45 6e-45 6e-45 12.36311 1.3830111 5.5237614e-10 5.510566 0.98677975
00000000: 0400 0000 0400 0000 0400 0000 4ccf 4541
00000010: 8206 b13f 04d6 1730 8f56 b040 999d 7c3f

down_blocks.1.conv1.weight f4 [16, 8, 3, 3]
-1.6065063 -1.0825201 -0.75392663 -1.578506 -0.70410925 -0.2984972 -0.7351937 -0.11219354
0.13988237 -1.0348144 -0.70733935 -1.0840341 -0.88089865 -0.47490025 -0.6674602 0.09619532
0.3909981 -0.021990592 -1.4609782 -1.5669147 -1.7637731 -1.3239181 -0.85815996 -1.1131562
-0.43539816 -0.07826372 -0.5193146 -0.7287059 -0.66270936 -0.4110223 -0.62260985 0.19734715
0.6676284 -0.029914858 0.73550224 1.3340176 0.2230973 -0.60065544 -1.3175503 0.07734109
-0.2980073 -0.866715 0.1909282 -0.06371188 -0.002171177 -1.6619817 -1.3935885 -1.5408769
-1.1214364 -0.8320095 -0.9740795 -0.5054327 -0.07078207 -0.45837703 0.26437002 -0.712724
-0.50960594 0.3217893 -0.094025254 0.19007361 -0.6905212 -0.3583139 0.1630609 0.23554893
0.18616813 0.54497445 0.6087831 0.49135873 0.9270973 0.8311921 0.85214 1.1677824
0.16913554 0.16418898 -0.10009414 0.28403366 0.16714963 0.14363588 0.10166973 0.17936298
0.20962301 -0.010438235 -0.07374516 -0.025283808 -0.10899485 0.014852081 -0.22834381 -0.049216367
0.17343476 -0.07774612 -0.1462297 0.12117935 -0.15118788 -0.20040749 -0.09556663 -0.17668079
-0.17142498 0.05498798 -0.12509733 -0.81757325 -0.8999249 -0.9974756 -0.6995967 -0.8607099
-1.2542971 -0.56046665 -0.4514539 -1.1879467 0.464918 -0.1865066 -0.29239982 0.5468568
-0.12870103 -0.7534597 1.0758767 0.2083538 -0.46448055 -0.0035213768 0.061064832 0.00358696
-0.017292144 0.22214991 -0.1952503 0.096980974 0.19700457 -0.10447833 -0.562904 -1.1089561
-1.043291 -0.5725063 -0.70109665 -0.7146935 0.0749153 0.2599189 -0.00025674442 -0.20973225
-0.13820426 0.14888261 -0.14037682 -0.06834389 0.23193648 -0.2960482 -0.099220805 -0.095567636
-0.85644096 -0.70287687 -0.25433755 -0.20381115 -0.14419682 0.09287437 -0.30960727 -0.07137537
-0.10433398 -0.9356073 -0.9070128 -0.9011453 -0.45758507 -0.17288461 -0.27793077 -0.45605803
-0.118113235 -0.30791485 -1.5682908 -1.3625376 -1.267181 -0.8237485 -0.6200585 -0.32028508
-0.68782634 -0.73710656 -0.7416963 -0.4917517 -0.03507056 0.72637284 -0.932469 0.26794836
0.8527662 -0.22161965 0.5869214 1.384228 0.8991741 -0.06704082 0.26707146 0.4637488
0.0975132 0.044723235 0.6784052 0.12066797 0.46935907 -1.5850571 -1.5064056 -1.2183858
-0.6793258 -0.60483354 -0.33754903 -0.83978885 -0.54403746 -0.23620068 0.63076603 -0.33096826
-0.9582076 -0.79190254 -1.1329895 -0.765394 -0.8763239 -0.29166135 -0.10843564 0.3358875
0.2562016 0.077611856 0.1236601 0.044558275 0.17930295 0.58120924 0.39065024 0.5961959
-0.49627417 -0.082375 0.38463646 -0.20517677 -0.20547645 0.34406772 -0.29769576 -0.10267233
0.14571548 -0.06550802 -0.15878944 -0.0033219499 -0.040729392 -0.074450865 -0.07732217 -0.081744015
-0.346471 -0.2640647 0.11029372 0.18649426 0.2991259 0.27042717 0.07549655 0.015379144
0.3257625 0.28825375 0.06267977 -0.7866901 0.6522294 1.7678711 -0.9106517 0.039700184
1.5588057 -0.57054317 -0.21754174 0.4892714 -0.9119435 -0.5436929 -0.67942894 -0.2623805
00000000: 00a2 cdbf 0590 8abf 5601 41bf 7c0c cabf
00000010: 8140 34bf a0d4 98be a835 3cbf bac5 e5bd
00000020: 533d 0f3e cc74 84bf 3114 35bf a1c1 8abf
00000030: 9382 61bf 2026 f3be acde 2abf 0d02 c53d
00000040: e730 c83e 9d25 b4bc 5501 bbbf a990 c8bf
00000050: 51c3 e1bf 2676 a9bf 5fb0 5bbf e77b 8ebf
00000060: 82ec debe bb48 a0bd cdf1 04bf 788c 3abf
00000070: 52a7 29bf 8471 d2be 5c63 1fbf 5f15 4a3e
00000080: b2e9 2a3f 0110 f5bc e049 3c3f 17c1 aa3f
00000090: 9e73 643e 8ec4 19bf 7da5 a8bf 0165 9e3d
000000a0: 6a94 98be 09e1 5dbf af82 433e 607b 82bd
000000b0: 4e4a 0ebb d1bb d4bf 1c61 b2bf 743b c5bf
000000c0: 3a8b 8fbf 93fe 54bf 465d 79bf 0a64 01bf
000000d0: 31f6 90bd 65b0 eabe 825b 873e 1475 36bf
000000e0: 8975 02bf 91c1 a43e 5090 c0bd a8a2 423e
000000f0: ffc5 30bf eb74 b7be 70f9 263e bd33 713e
00000100: dca2 3e3e 7283 0b3f 36d9 1b3f 5f93 fb3e
00000110: 4056 6d3f 01c9 543f d925 5a3f e579 953f
00000120: de31 2d3e 2821 283e 28fe ccbd dc6c 913e
00000130: 4629 2b3e 4915 133e 3838 d03d eeaa 373e
00000140: 6aa7 563e 2105 2bbc b407 97bd fd1f cfbc
00000150: b138 dfbd 2556 733c f6d2 69be 1a97 49bd
00000160: e298 313e 5c39 9fbd 3dbd 15be e12c f83d
00000170: ffd0 1abe 9f37 4dbe 70b8 c3bd cfeb 34be
00000180: 088a 2fbe 133b 613d 8419 00be 7b4c 51bf
00000190: 7a61 66bf 905a 7fbf c518 33bf 7c57 5cbf
000001a0: cf8c a0bf be7a 0fbf f724 e7be a30e 98bf
000001b0: bb09 ee3e 96fb 3ebe 6eb5 95be cffe 0b3f
000001c0: 34ca 03be bce2 40bf 54b6 893f b35a 553e
000001d0: 65d0 edbe e6c6 66bb 1e1f 7a3d 3413 6b3b
000001e0: 41a8 8dbc 447b 633e b2ef 47be f69d c63d
000001f0: 91bb 493e bcf8 d5bd 7a1a 10bf 46f2 8dbf
00000200: 8f8a 85bf c68f 12bf 127b 33bf 27f6 36bf
00000210: 316d 993d 1714 853e a79b 86b9 0dc4 56be
00000220: 6b85 0dbe af74 183e f1be 0fbe e2f7 8bbd
00000230: c280 6d3e a193 97be 4734 cbbd f7b8 c3bd
00000240: b73f 5bbf bdef 33bf 8838 82be dfb3 50be
00000250: 55a8 13be eb34 be3d d884 9ebe 402d 92bd
00000260: 0ead d5bd f683 6fbf fe31 68bf 75b1 66bf
00000270: 9748 eabe aa08 31be f14c 8ebe 7080 e9be
00000280: 5ae5 f1bd 04a7 9dbe c1bd c8bf a267 aebf
00000290: fd32 a2bf 2fe1 52bf 27bc 1ebf 68fc a3be
000002a0: 6315 30bf 04b3 3cbf cfdf 3dbf e1c6 fbbe
000002b0: 26a6 0fbd 92f3 393f 4ab6 6ebf 8730 893e
000002c0: e34e 5a3f 43f0 62be 7b40 163f 622e b13f
000002d0: 4630 663f b34c 89bd 97bd 883e 7c70 ed3e
000002e0: 00b5 c73d b62f 373d f7ab 2d3f c520 f73d
000002f0: d54f f03e 27e3 cabf e6d1 c0bf 11f4 9bbf
00000300: 4ce8 2dbf 5fd6 1abf 3ad3 acbe 67fc 56bf
00000310: 0a46 0bbf 97de 71be e279 213f ac74 a9be
00000320: 184d 75bf 20ba 4abf cd05 91bf dcf0 43bf
00000330: c356 60bf a354 95be 8113 debd 72f9 ab3e
00000340: db2c 833e f7f2 9e3d 8241 fd3d bd82 363d
00000350: 319b 373e 21ca 143f 4f03 c83e 4ba0 183f
00000360: a617 febe 39b4 a8bd 12ef c43e dc19 52be
00000370: 6b68 52be a529 b03e 946b 98be df45 d2bd
00000380: 7036 153e 1229 86bd b399 22be 12b5 59bb
00000390: ddd3 26bd b279 98bd 165b 9ebd 6869 a7bd
000003a0: a664 b1be 7d33 87be ade1 e13d 5af8 3e3e
000003b0: 0827 993e 6e75 8a3e ef9d 9a3d cef8 7b3c
000003c0: 58ca a63e ff95 933e 405e 803d 8664 49bf
000003d0: 82f8 263f 9a49 e23f 7820 69bf a99c 223d
000003e0: f286 c73f 1e0f 12bf 43c3 5ebe c881 fa3e
000003f0: 2175 69bf 752f 0bbf 0eef 2dbf bd56 86be

down_blocks.1.conv1.bias f4 [16]
0.8135665 0.17993857 0.48430339 0.100089505 -0.4925975 -1.44548 -0.5939713 -1.0529202
0.5537836 -0.4165647 -0.9453665 -0.5430054 0.1450389 -1.2210205 -1.3607651 -0.9042206
00000000: e545 503f d141 383e 9df6 f73e bafb cc3d
00000010: bd35 fcbe 7d05 b9bf 810e 18bf 17c6 86bf
00000020: c3c4 0d3f f847 d5be 8a03 72bf 6702 0bbf
00000030: 1485 143e 664a 9cbf 8d2d aebf 007b 67bf

down_blocks.1.conv2.weight f4 [16, 16, 3, 3]
-0.3248212 -0.578408 -0.33511367 -0.45755088 -0.74166715 -0.32159734 -0.05841702 -0.46461117
-0.36583474 -0.34693933 -0.590786 0.20832619 -0.26311484 -0.39681107 -0.26022825 0.12872443
0.049182042 0.09691484 0.11627499 0.23655042 0.30112943 -0.5558666 -0.0010802783 -0.10099651
-0.9182369 0.043911625 0.11807695 1.2264843 -0.6650175 -1.421769 1.1591135 -0.15432267
-0.26445305 -0.23748437 0.5193209 0.57519776 1.2200618 -2.1868446 -0.25900203 2.145557
-1.5758576 0.43965924 0.43416765 -0.6340674 0.84349626 -0.10386444 0.08832121 0.17152168
-0.15875594 0.010763772 0.24039392 -0.23336154 -0.1747288 0.25963658 -0.9937014 -0.6805487
-0.067239866 -0.62305367 -0.41943327 0.023514189 -0.059591055 -0.41107902 -0.39417562 0.9238394
0.59691274 0.92930967 0.004460826 -0.31021124 0.05727399 -1.1130695 -0.99933594 -1.0498558
0.06301816 0.2966214 0.6320801 -0.6275113 -0.023624904 -0.12384913 -0.9287516 -0.44209212
0.10505692 -0.41499683 -0.6944798 -0.701282 0.03784184 -0.8760438 -0.7363613 0.58851063
-0.35656488 -0.243134 -0.09413667 0.6083499 0.016851045 -0.5129751 -0.48297983 -0.84165823
-0.27779335 -1.2681764 -0.76924443 -0.20399015 -0.48689228 -0.22149143 -0.028947214 -0.17029448
-0.4881747 0.14728186 -0.3769778 -0.5336447 -0.1479829 0.33810025 0.04593224 0.24805969
0.11431039 0.06368642 0.029199272 -0.54995185 -0.64953387 -0.017901806 0.13279493 0.67296684
-0.15363713 -0.06868344 0.40655497 -0.41308597 -0.61109966 -0.23498367 -0.22577219 -0.04138983
0.07303458 -0.07608555 0.02180188 0.1415787 0.511718 0.090762585 0.19328378 -0.015612727
0.56663257 0.9937433 -0.46244803 -0.15175802 0.15755722 -0.3145575 -0.097821295 0.056554537
0.732876 0.8476744 1.0947045 0.5519305 0.46525434 0.70709187 0.9734139 0.54323
0.2865027 0.042599544 -0.051805485 0.0068261656 -0.09612182 0.0058303843 -0.143048 -0.24118832
-0.2044198 -0.5038674 -0.39279786 -0.03787125 0.17337784 0.15398052 0.49248582 0.23291996
0.585746 0.5992995 0.45601702 -1.0293604 -0.4922584 0.16282845 -0.711896 -0.55322975
-0.09384577 -0.83465993 -1.241896 -0.94941974 0.21256027 0.112596594 -0.10927175 -0.35140553
0.39240748 0.037905056 -0.54933023 0.41736507 -0.22474624 -0.058518548 -0.17919286 -0.34318912
-0.29388282 -0.3707917 -0.33452982 -0.14607202 -0.2636088 -0.28322357 1.1217257 0.8892608
0.39127442 0.36149234 0.6569859 -0.14145757 1.1278973 0.8944817 0.426127 -0.38507816
-0.50810087 -0.9522328 -0.15200551 0.12336443 -0.5186478 0.07867346 0.56845874 0.078377314
-0.1749622 0.34134483 0.36454263 0.028670501 0.2356903 0.20981432 0.7520923 0.78002584
0.54125243 -0.39196593 0.37674066 0.96590203 -0.1816769 -0.11633483 0.35886434 0.17899801
0.27802753 0.59919137 -0.59997255 0.24158505 0.3354863 -0.2569219 0.08795001 0.44562396
-0.15326901 0.34518182 0.8647212 -0.49374256 -0.43975946 -0.59737855 -0.9812248 -0.6261049
-0.39601707 -0.8958668 -0.7494817 -0.50501496 -0.37056327 0.03221702 -0.12823138 -0.18030682
00000000: f74e a6be 8c12 14bf 0594 abbe 1c44 eabe
00000010: e6dd 3dbf 68a8 a4be af46 6fbd 84e1 edbe
00000020: b14e bbbe 08a2 b1be c03d 17bf 7653 553e
00000030: fdb6 86be d22a cbbe a33c 85be 56d0 033e
00000040: 1c73 493d 4a7b c63d 9521 ee3d 463a 723e
00000050: a32d 9a3e 464d 0ebf 2098 8dba 42d7 cebd
00000060: 9311 6bbf addc 333d 54d2 f13d 70fd 9c3f
00000070: 963e 2abf 87fc b5bf d55d 943f c306 1ebe
00000080: 6466 87be 1a2f 73be 37f2 043f 2940 133f
00000090: fc2a 9c3f 43f5 0bc0 ea9b 84be ce50 0940
000000a0: b4b5 c9bf 041b e13e 394b de3e 3e52 22bf
000000b0: 5fef 573f e1b6 d4bd c0e1 b43d 61a3 2f3e
000000c0: eb90 22be 885a 303c d329 763e 54f6 6ebe
000000d0: 1bec 32be 16ef 843e 3763 7ebf 7138 2ebf
000000e0: 0eb5 89bd 7280 1fbf f5bf d6be d4a0 c03c
000000f0: c015 74bd f378 d2be 63d1 c9be bd80 6c3f
00000100: 46cf 183f 3de7 6d3f 1f2c 923b 02d4 9ebe
00000110: 2298 6a3d 1079 8ebf 7bd4 7fbf ad61 86bf
00000120: aa0f 813d c3de 973e 00d0 213f 95a4 20bf
00000130: 0489 c1bc 9da4 fdbd aac2 6dbf e659 e2be
00000140: 1528 d73d 777a d4be 6ec9 31bf 3887 33bf
00000150: 0c00 1b3d 6844 60bf 2d82 3cbf a2a8 163f
00000160: ac8f b6be 1ff8 78be baca c0bd d2bc 1b3f
00000170: 340b 8a3c 5652 03bf 2249 f7be ea76 57bf
00000180: ee3a 8ebe 9b53 a2bf 34ed 44bf cbe2 50be
00000190: f249 f9be a6ce 62be b522 edbc ad61 2ebe
000001a0: 09f2 f9be 0ed1 163e 3c03 c1be f09c 08bf
000001b0: d488 17be 7a1b ad3e 7223 3c3d 5c03 7e3e
000001c0: 911b ea3d 076e 823d 5033 ef3c a5c9 0cbf
000001d0: da47 26bf cfa6 92bc 65fb 073e 8e47 2c3f
000001e0: 0d53 1dbe e7a9 8cbd f927 d03e 0180 d3be
000001f0: 0771 1cbf 8f9f 70be d330 67be 6288 29bd
00000200: 2793 953d bed2 9bbd db99 b23c 02fa 103e
00000210: f3ff 023f bce1 b93d 2fec 453e 86cc 7fbc
00000220: d50e 113f f665 7e3f fdc5 ecbe 7466 1bbe
00000230: ae56 213e ae0d a1be 8856 c8bd bba5 673d
00000240: c39d 3b3f 3101 593f 471f 8c3f 514b 0d3f
00000250: d135 ee3e f903 353f a731 793f 1f11 0b3f
00000260: 7bb0 923e dc7c 2e3d fd31 54bd 07ae df3b
00000270: 84db c4bd cf0c bf3b 2d7b 12be 12fa 76be
00000280: 6d53 51be 74fd 00bf cd1c c9be e21e 1bbd
00000290: f689 313e 12ad 1d3e 1a27 fc3e 9282 6e3e
000002a0: 73f3 153f b16b 193f 107b e93e 15c2 83bf
000002b0: 4b09 fcbe 80bc 263e d13e 36bf 77a0 0dbf
000002c0: 3632 c0bd 46ac 55bf 73f6 9ebf 2c0d 73bf
000002d0: 66a9 593e 0b99 e63d dec9 dfbd 6deb b3be
000002e0: a2e9 c83e 5542 1b3d e8a0 0cbf e0b0 d53e
000002f0: e123 66be 25b1 6fbd 557e 37be 7cb6 afbe
00000300: cf77 96be 69d8 bdbe 7e47 abbe e793 15be
00000310: bcf7 86be ae02 91be b594 8f3f 99a6 633f
00000320: 1f55 c83e 8615 b93e 3a30 283f 41da 10be
00000330: f05e 903f c1fc 643f 512d da3e f728 c5be
00000340: e612 02bf 87c5 73bf 55a7 1bbe 7ea6 fc3d
00000350: 1ac6 04bf 8d1f a13d 8386 113f 4984 a03d
00000360: 4a29 33be c0c4 ae3e 55a5 ba3e 66de ea3c
00000370: cc58 713e 91d9 563e 1f89 403f c6af 473f
00000380: 858f 0a3f c2af c8be 27e4 c03e 5b45 773f
00000390: 8209 3abe f540 eebd 11bd b73e 414b 373e
000003a0: a059 8e3e 9b64 193f cd97 19bf 1262 773e
000003b0: dcc4 ab3e 448b 83be 231f b43d d328 e43e
000003c0: 8df2 1cbe acbb b03e 5e5e 5d3f d3cb fcbe
000003d0: 2728 e1be cded 18bf 8c31 7bbf 6948 20bf
000003e0: c0c2 cabe 8757 65bf 08de 3fbf a948 01bf
000003f0: 78ba bdbe fef5 033d 164f 03be 5aa2 38be

down_blocks.1.conv2.bias f4 [16]
0.09746286 -0.35966462 -0.055671073 0.29747048 -1.6695602 -1.0579568 -1.2621663 -1.1996969
-0.41941157 -0.7202231 -1.3330714 0.44627234 -0.45324382 -0.048830204 -0.30085284 -0.6291618
00000000: 9c9a c73d f625 b8be 5a07 64bd 0d4e 983e
00000010: 26b4 d5bf 216b 87bf aa8e a1bf ab8f 99bf
00000020: 1dbd d6be 8b60 38bf 15a2 aabf cf7d e43e
00000030: 930f e8be 2e02 48bd 6209 9abe bf10 21bf

down_blocks.1.norm1.weight f4 [16]
1.5218233 0.61765623 1.1579505 1.4521266 2.090092 0.5382932 0.6404261 0.89126104
1.2243109 1.8172466 0.923608 0.7242203 0.9921901 0.5169908 0.7303561 1.3366356
00000000: 1bcb c23f b81e 1e3f b937 943f 49df b93f
00000010: 11c4 0540 95cd 093f f7f2 233f af29 643f
00000020: 38b6 9c3f 899b e83f 9371 6c3f 8066 393f
00000030: 2c00 7e3f 8259 043f 9ef8 3a3f e016 ab3f

down_blocks.1.norm1.bias f4 [16]
-0.9455896 -0.63176095 0.25605878 -0.8852705 0.4221993 -0.54941154 -0.026711777 -0.71312845
0.00041358307 -0.3760279 1.0760471 -0.1710235 0.6672647 0.073435135 -0.02258365 -0.15594155
00000000: 2912 72bf 16bb 21bf 231a 833e 16a1 62bf
00000010: 822a d83e 3ca6 0cbf a8d2 dabc 968f 36bf
00000020: 2ed6 d839 bb86 c0be e9bb 893f c920 2fbe
00000030: dcd1 2a3f 2965 963d 5901 b9bc 24af 1fbe

down_blocks.1.norm1.running_mean f4 [16]
22.283552 19.00985 18.04421 0.11904085 3.5389252 6e-45 0.03297097 2.6870202e-07
15.594362 0.23337248 1.5366365 5.512147e-09 16.635153 1.2437164e-07 0.0024326849 2.4916128e-08
00000000: b744 b241 2c14 9841 8b5a 9041 b0cb f33d
00000010: c07d 6240 0400 0000 910c 073d 2042 9034
00000020: 8282 7941 32f9 6e3e 81b0 c43f 5c65 bd31
00000030: cb14 8541 048b 0534 ae6d 1f3b 2507 d632

down_blocks.1.norm1.running_var f4 [16]
13.827947 41.12726 25.92014 2.110491 3.6278214 6e-45 0.514627 2.4520157e-06
19.067522 5.008227 37.01192 1.9095955e-07 47.2356 4.314461e-06 0.023035517 1.121292e-06
00000000: 453f 5d41 5082 2442 725c cf41 4912 0740
00000010: 3a2e 6840 0400 0000 98be 033f 4f8d 2436
00000020: 498a 9841 6543 a040 350c 1442 900a 4d34
00000030: 41f1 3c42 f0c4 9036 fbb4 bc3c 4d7f 9635

down_blocks.1.norm2.weight f4 [16]
1.8365916 0.6782917 0.366465 1.8306513 1.4104806 0.5379986 0.8973373 1.8338919
1.2740554 1.1239069 1.426863 1.2905825 0.49409312 0.7949152 1.7834591 0.9122192
00000000: 6f15 eb3f 86a4 2d3f 4da1 bb3e c852 ea3f
00000010: a18a b43f 47ba 093f e6b7 653f f8bc ea3f
00000020: 3f14 a33f 2edc 8f3f 72a3 b63f cf31 a53f
00000030: c6f9 fc3e 907f 4b3f 6348 e43f 3387 693f

down_blocks.1.norm2.bias f4 [16]
1.029946 -0.16593419 -0.93551 0.26881972 0.084551975 0.2696761 0.8784462 0.41006035
-0.7901037 0.41078097 0.09284308 0.024641585 0.26852378 0.028059926 0.9657569 -0.90057176
00000000: 45d5 833f a7ea 29be 957d 6fbf bda2 893e
00000010: 9629 ad3d fc12 8a3e dae1 603f 6ef3 d13e
00000020: 3c44 4abf e251 d23e 8324 be3d 26dd c93c
00000030: f37b 893e eedd e53c d83b 773f df8b 66bf

down_blocks.1.norm2.running_mean f4 [16]
4.304326 4.707452 6.8206 18.017124 0.17100598 1.0061678 0.21247476 0.58776414
0.23271927 1.131342 0.442417 6.4532046 8.592806 15.268956 0.5578441 1.9605894
00000000: 0abd 8940 72a3 9640 5b42 da40 1223 9041
00000010: 311c 2f3e 1bca 803f fc92 593e b677 163f
00000020: f64d 6e3e d1cf 903f 7b84 e23e a780 ce40
00000030: 227c 0941 a54d 7441 dfce 0e3f 98f4 fa3f

down_blocks.1.norm2.running_var f4 [16]
50.094025 81.98309 315.0116 265.54144 18.155296 46.108 21.022617 31.948254
3.8107786 76.84542 30.190275 55.83705 189.88158 423.03506 53.08044 194.85104
00000000: 4860 4842 58f7 a342 7c81 9d43 4ec5 8443
00000010: 0c3e 9141 986e 3842 522e a841 0696 ff41
00000020: cce3 7340 dbb0 9942 af85 f141 2459 5f42
00000030: afe1 3d43 7d84 d343 5f52 5442 ded9 4243

down_blocks.2.conv1.weight f4 [32, 16, 3, 3]
-0.8435146 -0.27130046 -0.27257952 0.09140405 0.42065883 -0.018307216 0.26590705 0.08555482
-0.5628131 0.35166013 -0.44426408 -1.1369429 0.49345967 -0.12642342 -0.87204725 -0.089569524
-0.39361626 -0.42810142 0.44323146 0.11370363 -0.17739186 0.41881636 0.16918539 -0.017721096
-0.31668878 -0.4749151 -0.35335836 0.22997211 0.43318188 0.70170295 0.72028816 1.4991201
1.2609106 0.8160587 1.0307996 0.86801714 0.65149045 0.6752566 0.23792972 1.1677408
1.172519 0.2563554 0.4095621 0.31734198 0.18373333 0.6422812 0.86212265 0.66881824
0.45651183 0.50027454 0.7689007 0.13759647 0.62791604 0.6443808 0.059197985 0.42148644
0.3973102 0.15491654 0.62357676 0.6522764 -0.4319574 0.63278407 0.9445728 0.61254585
-0.07624589 0.005189353 0.32167953 0.19350865 0.6059743 -0.4714336 0.6961069 0.9216608
-0.013860571 -0.7840268 -1.2309543 -0.07396783 -0.6600557 -0.75662035 -0.32076418 -0.27872705
-0.24319626 0.025879048 -0.42702484 -0.48063126 0.037544146 0.032428127 0.3527168 -0.5107606
0.09042148 0.56013876 -0.13682029 0.1334007 0.54307693 -0.26990032 0.42650974 0.7098553
-1.2527671 0.55338454 1.2283791 -0.15635104 0.008585867 -0.25603458 0.34238276 0.5567537
0.30390343 0.20703436 0.28209168 0.13317928 0.096267946 0.21101147 0.061755568 -0.30570915
-0.1217199 0.19649112 -0.30718768 -0.124561526 -0.18405245 0.67317015 0.61179155 0.32623795
0.6136609 0.7034928 0.45802355 -0.06788786 0.2269236 0.45186824 1.225414 1.1495941
0.0631322 0.67993826 0.382206 0.016562704 -0.192686 -0.1484587 -0.37021402 0.56459296
0.33687857 -0.121995084 1.0263948 0.66735566 0.35950348 0.7006921 0.48394778 0.21298851
0.803723 0.07188222 0.7648775 -0.5510398 -1.2307792 -0.24254727 -0.95728654 -1.4484147
-0.32112336 -0.0028272134 0.13904756 -0.50607675 0.5765782 0.73825586 0.015452417 0.8391921
0.82269514 0.5773965 -0.8673734 -0.32519215 0.6369039 -0.45333648 0.120526075 0.50866836
0.43693203 0.37387663 0.59658384 0.5322748 -0.7211638 -0.6866967 -1.069647 -1.2803141
-0.038202107 -1.5752294 -1.1250767 0.4537636 -0.20932066 0.5185023 1.0305674 -1.1301327
-0.05937133 0.8736409 -1.1399914 -0.19137245 0.5665764 -0.13368894 -1.2653835 -1.380893
0.5397785 -0.43604743 -0.85028964 1.1817781 0.12372874 0.011167041 -0.6462992 -0.6023104
0.10022954 -0.31677055 -1.1963401 -0.16175576 -0.053542066 -1.5352058 -1.0653617 2.5294135
1.8089908 -0.5526279 1.9035163 1.2385253 -0.2276856 0.691693 0.27101368 0.38124478
0.762202 1.1122894 0.38546073 0.59130496 0.9123657 0.32105753 -0.16042411 0.11033332
-0.35901812 1.3253855 1.2184635 -0.08408538 1.5380557 0.97896653 -0.6662732 1.1598766
-0.033499695 -0.5879277 0.68933773 0.10192116 -0.73572165 1.0843724 -0.21735266 -1.1491122
0.89980733 -0.62701654 -0.7854934 0.37673444 0.2336238 0.627554 -1.0884519 -1.7359569
-1.2245569 -1.1898905 -1.9448328 -2.2939126 0.4639806 0.22274609 0.37934282 0.8213286
00000000: 93f0 57bf e5e7 8abe 8b8f 8bbe 0c32 bb3d
00000010: 9860 d73e 04f9 95bc f824 883e 5e37 af3d
00000020: 8514 10bf cc0c b43e 9576 e3be 5887 91bf
00000030: bfa6 fc3e 2475 01be 7d3e 5fbf 3a70 b7bd
00000040: 1288 c9be 1c30 dbbe 3cef e23e 73dd e83d
00000050: 36a6 35be 196f d63e ef3e 2d3e d52b 91bc
00000060: 0825 a2be 1228 f3be 63eb b4be cf7d 6b3e
00000070: 04ca dd3e cea2 333f ce64 383f 2be3 bf3f
00000080: 8565 a13f 39e9 503f 3ef1 833f 5f36 5e3f
00000090: 14c8 263f 9edd 2c3f d9a3 733e 8878 953f
000000a0: 1a15 963f 0441 833e 20b2 d13e a67a a23e
000000b0: 9724 3c3e 8a6c 243f 12b4 5c3f ac37 2b3f
000000c0: ebbb e93e fe11 003f add6 443f 17e6 0c3e
000000d0: 1bbf 203f 24f6 243f 9679 723d 12cd d73e
000000e0: 3e6c cb3e 71a2 1e3e baa2 1f3f 96fb 263f
000000f0: 8529 ddbe 23fe 213f 86cf 713f cecf 1c3f
00000100: ce26 9cbd 730b aa3b 2eb3 a43e 2227 463e
00000110: 2221 1b3f bf5f f1be 1034 323f f6f1 6b3f
00000120: 7317 63bc fbb5 48bf e98f 9dbf 727c 97bd
00000130: 69f9 28bf dfb1 41bf 343b a4be 50b5 8ebe
00000140: 7108 79be 4c00 d43c 00a3 dabe 4d15 f6be
00000150: e4c7 193d 5bd3 043d 4c97 b43e 35c1 02bf
00000160: e62e b93d 4165 0f3f 9e1a 0cbe 319a 083e
00000170: 1707 0b3f 6030 8abe 7c5f da3e 14b9 353f
00000180: ac5a a0bf 9caa 0d3f 873b 9d3f 7d1a 20be
00000190: bcab 0c3c f716 83be cb4c af3e 6987 0e3f
000001a0: 3b99 9b3e d100 543e 526e 903e 2660 083e
000001b0: 2128 c53d 6413 583e 68f3 7c3d e985 9cbe
000001c0: 4848 f9bd f834 493e b447 9dbe 1d1a ffbd
000001d0: 3f78 3cbe e154 2c3f 5f9e 1c3f a908 a73e
000001e0: e118 1d3f 1b18 343f 1082 ea3e ca08 8bbd
000001f0: a95e 683e 465b e73e 5eda 9c3f e625 933f
00000200: 744b 813d 6f10 2e3f 81b0 c33e 82ae 873c
00000210: 7b4f 45be 8f05 18be b18c bdbe 2a89 103f
00000220: 597b ac3e 8fd8 f9bd e860 833f d2d7 2a3f
00000230: d710 b83e 8f60 333f 01c8 f73e a919 5a3e
00000240: cac0 4d3f fc36 933d 03cf 433f f210 0dbf
00000250: 2c8a 9dbf 505e 78be bb10 75bf a765 b9bf
00000260: 486a a4be c548 39bb 7c62 0e3e 3f8e 01bf
00000270: a19a 133f 56fe 3c3f 222c 7d3c 4bd5 563f
00000280: 269c 523f 42d0 133f 2f0c 5ebf 967f a6be
00000290: 220c 233f b81b e8be 60d6 f63d 1738 023f
000002a0: 8eb5 df3e c26c bf3e b8b9 183f 2943 083f
000002b0: 319e 38bf 5bcb 2fbf 31ea 88bf 55e1 a3bf
000002c0: d079 1cbd 1ea1 c9bf 8302 90bf b453 e83e
000002d0: 2858 56be 91bc 043f a2e9 833f 30a8 90bf
000002e0: 5a2f 73bd eea6 5f3f 3deb 91bf 24f7 43be
000002f0: 270b 113f c1e5 08be 16f8 a1bf 1ac1 b0bf
00000300: ec2e 0a3f 9c41 dfbe 95ac 59bf 8144 973f
00000310: 7e65 fd3d f7f5 363c dd73 25bf 0431 1abf
00000320: 2545 cd3d c02f a2be ac21 99bf 4da3 25be
00000330: ed4e 5bbd a081 c4bf c65d 88bf e9e1 2140
00000340: 038d e73f 0679 0dbf 6ca6 f33f ff87 9e3f
00000350: 6a26 69be cb12 313f 4ec2 8a3e 8432 c33e
00000360: ac1f 433f 805f 8e3f 1c5b c53e c35f 173f
00000370: cc90 693f a761 a43e 3846 24be 70f6 e13d
00000380: 39d1 b7be 3ba6 a93f 9df6 9b3f f534 acbd
00000390: 02df c43f 8d9d 7a3f e190 2abf d676 943f
000003a0: fa36 09bd 6e82 16bf 7078 303f 0bbc d03d
000003b0: 4158 3cbf b7cc 8a3f b291 5ebe 1c16 93bf
000003c0: c659 663f 2884 20bf 1816 49bf 56e3 c03e
000003d0: 143b 6f3e 61a7 203f 6452 8bbf d633 debf
000003e0: 48be 9cbf 554e 98bf 48f0 f8bf 77cf 12c0
000003f0: dd8e ed3e 8d17 643e 3939 c23e 9742 523f

down_blocks.2.conv1.bias f4 [32]
-0.20735866 -0.2807174 0.20039612 0.06296484 -0.825522 -0.9909025 0.10164416 0.13059364
-0.83274937 0.31658265 0.09198792 -0.31847814 -0.21907873 -0.39683312 0.30742815 -0.14889391
-0.58193654 -0.5312024 -0.6474001 -0.16690299 -0.41933134 -0.061696358 -0.46307206 0.0035922916
0.10506089 -0.5548533 -0.107990906 -0.5257633 -0.3225461 -1.2441224 -1.1832798 -1.1275593
00000000: d455 54be 31ba 8fbe a434 4d3e b6f3 803d
00000010: 6955 53bf c9ab 7dbf d02a d03d 57ba 053e
00000020: 102f 55bf 1f17 a23e 2a64 bc3d 910f a3be
00000030: 2d56 60be b62d cbbe 3967 9d3e a577 18be
00000040: cbf9 14bf e1fc 07bf 03bc 25bf 9ee8 2abe
00000050: 99b2 d6be 52b5 7cbd c817 edbe a76c 6b3b
00000060: 2a2a d73d de0a 0ebf 562a ddbd 6c98 06bf
00000070: c324 a5be 673f 9fbf b675 97bf dd53 90bf

down_blocks.2.conv2.weight f4 [32, 32, 3, 3]
-0.8771514 -0.48950058 -0.46299967 -0.89606583 -0.24914655 -0.5134894 -1.0803162 -0.502944
-0.9876064 -0.5704699 -0.69506985 -0.29618287 -0.68563205 -0.72992694 -0.2750905 -0.8935431
-0.9491356 -0.08321809 0.570165 0.35306528 0.8024271 0.51454407 0.11103526 0.7641128
0.23062408 0.033914197 0.7289072 -0.28115955 -0.2125042 -0.8754513 -0.6580196 -0.5934226
-1.1858494 -0.5216787 -0.049798913 -0.639579 -1.1729205 -1.0269156 -0.39614528 -1.1103951
-1.3231742 -1.0174868 -1.6497728 -1.5339724 -0.49796158 -1.951854 -1.2270231 -0.44472033
-1.1616551 -1.3203566 -0.7650498 -1.3161399 -1.2124811 -0.93467104 -0.4348589 -0.23949979
-0.14594992 -0.28315067 -0.11665899 -0.6239851 -0.38409418 -0.15756556 -0.743854 -0.4465638
-0.8587883 -1.1786342 -0.50527596 -0.7379222 -0.8364734 -0.44024238 -0.5946302 -0.6638176
-1.031718 -0.45346826 0.02334165 -0.9400241 -0.6899472 -0.14515154 -0.8439165 -0.65657544
-0.3958484 -0.11194707 -0.31470674 -0.61343026 -0.58813375 -0.28323236 -0.7048972 -0.6544529
-0.4153224 -0.7883405 0.16537271 -0.07138046 0.05189896 0.017133445 -0.031557716 0.15079542
0.09096876 -0.038671948 0.35679993 -0.0863107 -0.28632745 -0.07363048 0.15271825 -0.071731284
0.29145733 -0.056159873 -0.038896076 0.5340396 -0.54845756 -0.301112 0.28644073 -0.83117115
-0.7970171 -0.03271392 -1.1487523 -0.9021029 0.29280442 -1.082321 -0.8130732 -0.9036804
-1.2968054 -1.0198036 -0.8754547 -1.8066926 -1.6802474 -1.3125901 -0.997679 -1.2586262
-1.5839008 -0.7400347 -1.0479112 -1.0688607 -1.2667463 -1.1929066 -1.059248 -0.7715676
-0.51737434 -0.952492 -0.99703425 -0.87279683 -1.3872449 -1.2421356 -1.2559701 -1.6461053
0.044924267 0.24658379 0.28419593 -0.20644577 -0.07287455 0.14783695 -0.24371463 -0.037446044
0.10597095 -1.5821933 -1.248712 -0.86085546 -0.8739073 -0.7421814 -0.435141 -1.1204176
-0.8588048 -0.701761 -1.4505689 -1.3722292 -1.1575934 -1.0757775 -1.0660175 -1.0909315
-1.2709961 -1.2459859 -1.1154346 -0.12000329 -0.319045 -0.31210878 -0.018660024 -0.049307145
-0.017918281 0.12299568 0.049442623 0.19239998 -0.3103034 -0.5130793 -0.94895303 -0.52409685
-0.65503454 -0.7269814 -0.6272353 -0.43339622 -0.42997044 0.107213706 0.45054382 0.5561875
-0.85912305 -0.52219 -0.5411777 -0.6114591 -0.29280064 -0.4306225 -0.47229007 -0.94848114
-1.3979672 -0.5343183 -0.7608491 -1.0354335 -0.48107246 -0.5603291 -0.8076546 -0.9765545
-0.3640555 -0.6529097 -1.0204191 -0.60771203 -1.1110282 -0.99808586 -1.1624547 -1.482523
0.29075894 0.3126406 0.4088362 0.39677188 0.24444348 0.34036076 0.2356338 0.35215738
0.60628855 -1.059635 -0.7351503 -0.16690692 -0.93808144 -0.748827 -0.3207618 -1.0005574
-0.96831375 -0.45027205 -0.958448 -0.63723034 -0.77929527 -1.120543 -0.997314 -1.1530806
-1.16676 -1.61362 -1.6924626 0.26903272 0.36760867 0.4841154 0.21400549 0.37672108
0.3265754 0.16407165 0.338507 0.020508816 0.34539938 0.45723164 0.055578068 -0.41618147
00000000: ff8c 60bf d29f fabe 4b0e edbe 9264 65bf
00000010: 4620 7fbe 0b74 03bf cd47 8abf f0c0 00bf
00000020: c6d3 7cbf 510a 12bf 19f0 31bf 48a5 97be
00000030: 9585 2fbf 7edc 3abf a9d8 8cbe 3ebf 64bf
00000040: 8dfa 72bf 3f6e aabd 55f6 113f f9c4 b43e
00000050: dd6b 4d3f 29b9 033f 7466 e33d e59c 433f
00000060: b828 6c3e 9de9 0a3d aa99 3a3f 25f4 8fbe
00000070: b39a 59be 941d 60bf f973 28bf 8bea 17bf
00000080: eac9 97bf bc8c 05bf f2f9 4bbd 73bb 23bf
00000090: 4222 96bf f871 83bf 8ed3 cabe 6d21 8ebf
000000a0: c65d a9bf 023d 82bf c12b d3bf 3559 c4bf
000000b0: d2f4 febe 5ad6 f9bf 180f 9dbf 62b2 e3be
000000c0: 1db1 94bf 7201 a9bf 4eda 43bf 4677 a8bf
000000d0: 9532 9bbf 9a46 6fbf d3a5 debe 6f3f 75be
000000e0: e573 15be 20f9 90be e9ea eebd 7dbd 1fbf
000000f0: fea7 c4be de58 21be 376d 3ebf 03a4 e4be
00000100: 8dd9 5bbf 7cdd 96bf c459 01bf 78e8 3cbf
00000110: 1f23 56bf 7367 e1be af39 18bf f3ef 29bf
00000120: 560f 84bf fe2c e8be fd36 bf3c 6ba5 70bf
00000130: 61a0 30bf 9ba2 14be e90a 58bf 5415 28bf
00000140: a4ac cabe 8144 e5bd 3e21 a1be c409 1dbf
00000150: ef8f 16bf d503 91be 2574 34bf 3a8a 27bf
00000160: 23a5 d4be afd0 49bf 7757 293e eb2f 92bd
00000170: 0194 543d 705b 8c3c aa42 01bd 1d6a 1a3e
00000180: d44d ba3d 7a66 1ebd 7bae b63e aac3 b0bd
00000190: 8399 92be 94cb 96bd 2c62 1c3e dae7 92bd
000001a0: e539 953e e507 66bd 7e51 1fbd d2b6 083f
000001b0: b767 0cbf 5a2b 9abe 5ca8 923e a2c7 54bf
000001c0: 5009 4cbf 08ff 05bd 510a 93bf 37f0 66bf
000001d0: 76ea 953e 7f89 8abf 9125 50bf 9957 67bf
000001e0: b8fd a5bf ed88 82bf cd1d 60bf b441 e7bf
000001f0: 5912 d7bf f402 a8bf e467 7fbf aa1a a1bf
00000200: 43bd cabf ea72 3dbf f421 86bf 6dd0 88bf
00000210: be24 a2bf 2ab1 98bf 7095 87bf 7485 45bf
00000220: a572 04bf 84d6 73bf a33d 7fbf 9d6f 5fbf
00000230: 3e91 b1bf 4dfe 9ebf a1c3 a0bf 94b3 d2bf
00000240: 8202 383d 7680 7c3e 2182 913e 8566 53be
00000250: 413f 95bd 9262 173e 5490 79be 0661 19bd
00000260: 4c07 d93d 4f85 cabf cbd5 9fbf 0661 5cbf
00000270: 64b8 5fbf 9aff 3dbf cdca debe d869 8fbf
00000280: a2da 5bbf 9ca6 33bf 3eac b9bf 35a5 afbf
00000290: 052c 94bf 14b3 89bf 4373 88bf a5a3 8bbf
000002a0: 00b0 a2bf 777c 9fbf 90c6 8ebf 49c4 f5bd
000002b0: de59 a3be b9cc 9fbe e8dc 98bc 4af6 49bd
000002c0: 5cc9 92bc 29e5 fb3d 5984 4a3d 8004 453e
000002d0: 16e0 9ebe 2a59 03bf 96ee 72bf 362b 06bf
000002e0: 58b0 27bf 741b 3abf 7e92 20bf 1ce6 ddbe
000002f0: 1625 dcbe dc92 db3d aead e63e 4e62 0e3f
00000300: 7def 5bbf 3eae 05bf 9f8a 0abf 9588 1cbf
00000310: f7e9 95be 8d7a dcbe 01d0 f1be a9cf 72bf
00000320: 97f0 b2bf 16c9 08bf 02c7 42bf 1689 84bf
00000330: 214f f6be ba71 0fbf 74c2 4ebf 7aff 79bf
00000340: 7c65 babe 1725 27bf 189d 82bf 0493 1bbf
00000350: 2c36 8ebf 8e82 7fbf 51cb 94bf 50c3 bdbf
00000360: 5bde 943e 6e12 a03e fa52 d13e af25 cb3e
00000370: 644f 7a3e c443 ae3e fd49 713e f94d b43e
00000380: ba35 1b3f 1fa2 87bf cf32 3cbf a6e9 2abe
00000390: 1b26 70bf 20b3 3fbf e43a a4be 4412 80bf
000003a0: 69e3 77bf 0f8a e6be d95c 75bf 8721 23bf
000003b0: e57f 47bf f46d 8fbf f84f 7fbf 2598 93bf
000003c0: 6458 95bf 1a8b cebf 9da2 d8bf a8be 893e
000003d0: 3437 bc3e f9dd f73e 4124 5b3e 96e1 c03e
000003e0: e434 a73e 6602 283e ca50 ad3e 1b02 a83c
000003f0: 30d8 b03e 441a ea3e d4a5 633d bd15 d5be

down_blocks.2.conv2.bias f4 [32]
0.60529244 0.40962842 0.16717821 -1.9544698 -1.1421698 -0.7499682 -0.16516761 -0.08313718
-0.34973451 -1.5108329 -0.5329737 -1.0010886 0.33064744 -1.5386585 0.6257462 -0.3074551
0.66199136 -1.8094023 0.8818446 -0.36900753 -0.24309209 -0.6172803 0.12015851 -0.7172715
0.10924795 -1.2541965 -1.405995 -0.08857721 -0.62411374 0.16600743 -1.768078 0.80855596
00000000: 72f4 1a3f d1ba d13e c430 2b3e 112c fabf
00000010: 9f32 92bf eafd 3fbf b321 29be d343 aabd
00000020: 6710 b3be f962 c1bf f770 08bf ac23 80bf
00000030: 9f4a a93e c3f2 c4bf e730 203f c16a 9dbe
00000040: 4478 293f 7f9a e7bf 91c0 613f 8eee bcbe
00000050: 22ed 78be 1506 1ebf aa15 f63d 1b9f 37bf
00000060: 64bd df3d 8389 a0bf a5f7 b3bf f867 b5bd
00000070: ebc5 1fbf dafd 293e 6150 e2bf 86fd 4e3f

down_blocks.2.norm1.weight f4 [32]
0.6642091 1.0181574 0.29775226 0.8088135 1.7464929 1.9527211 0.77262086 0.9132012
1.4300449 0.76781 0.24650161 0.80332094 0.9068555 1.5820959 1.9357253 1.5910445
1.5343438 0.7327148 1.2838365 0.34632868 0.80626804 2.0311627 1.2132012 1.0700564
0.6796212 1.2422751 1.5014453 0.905027 1.1658089 1.3226838 2.526965 0.6210453
00000000: 9c09 2a3f fb52 823f fc72 983e 670e 4f3f
00000010: 148d df3f c4f2 f93f 7bca 453f 8ec7 693f
00000020: b60b b73f 328f 443f eb6a 7c3e 71a6 4d3f
00000030: af27 683f 1e82 ca3f d9c5 f73f 59a7 cb3f
00000040: 6165 c43f 3293 3b3f c154 a43f fe51 b13e
00000050: 9567 4e3f 92fe 0140 2d4a 9b3f 9cf7 883f
00000060: a8fb 2d3f df02 9f3f 5c2f c03f d9af 673f
00000070: 3a39 953f b44d a93f cbb9 2140 d3fc 1e3f

down_blocks.2.norm1.bias f4 [32]
-0.044460703 -0.16513173 0.10479042 -0.421752 -0.20684981 -0.5194668 0.7267316 -0.6411672
0.32327384 -0.5475433 0.042044364 -0.20482838 -0.14625645 -0.3545715 -0.5861402 -0.23021482
-0.47177255 -0.6686913 -1.021412 -0.1435573 -0.22781567 -0.20575348 -0.32279524 -0.08616868
0.040200602 -0.11562508 -0.26497492 1.310245 -0.5791481 -0.7578343 -0.12984712 -1.0783185
00000000: 6d1c 36bd 4b18 29be 5c9c d63d e1ef d7be
00000010: 70d0 53be c7fb 04bf 150b 3a3f 8923 24bf
00000020: 2684 a53e cc2b 0cbf b636 2c3d 88be 51be
00000030: 40c4 15be 658a b5be 490d 16bf 6fbd 6bbe
00000040: 2c8c f1be 5a2f 2bbf a1bd 82bf af00 13be
00000050: 8348 69be 0ab1 52be 6b45 a5be 3479 b0bd
00000060: 63a9 243d d8cc ecbd cbaa 87be 1cb6 a73f
00000070: 0d43 14bf 6e01 42bf a5f6 04be 5706 8abf

down_blocks.2.norm1.running_mean f4 [32]
14.242889 7.386787 9.62125 3.1453621 3.2750764 7.667644 1.0336463 2.9581642
25.96195 0.74632305 20.307041 20.881403 12.047704 12.587479 3.8352969 8.599469
1.3315616 7.010384 3.2493916 2.881693 14.860384 1.1558796 1.2735118 1.7864264
5.6580133 27.310692 9.64595 12.883042 0.30519757 0.40791404 6.653174 3.369386
00000000: e0e2 6341 8f60 ec40 a4f0 1941 9d4d 4940
00000010: da9a 5140 575d f540 864e 843f 9052 3d40
00000020: 13b2 cf41 070f 3f3f d274 a241 1d0d a741
00000030: 65c3 4041 5066 4941 8175 7540 6d97 0941
00000040: 9c70 aa3f 1155 e040 08f6 4f40 a86d 3840
00000050: 22c4 6d41 ddf3 933f 6f02 a33f 9fa9 e43f
00000060: 720e b540 4c7c da41 d055 1a41 f120 4e41
00000070: db42 9c3e 1cda d03e cde6 d440 05a4 5740

down_blocks.2.norm1.running_var f4 [32]
870.28326 705.8024 672.22534 61.32894 483.49344 846.34045 40.53272 47.671333
2413.939 20.670797 1379.414 951.5247 834.6767 2327.6094 361.7695 656.7514
40.18734 596.4572 419.58905 46.911007 948.81946 43.872147 15.204917 178.50261
141.06732 2194.5144 1103.2512 480.0484 11.399566 17.10641 413.41852 408.10062
00000000: 2192 5944 5b73 3044 6c0e 2844 d650 7542
00000010: 29bf f143 ca95 5344 8121 2242 72af 3e42
00000020: 06df 1645 cb5d a541 3f6d ac44 95e1 6d44
00000030: 4fab 5044 c079 1145 7fe2 b443 1730 2444
00000040: d6bf 2042 431d 1544 66cb d143 dfa4 3b42
00000050: 7234 6d44 147d 2f42 5747 7341 ab80 3243
00000060: 3c11 0d43 3b28 0945 0ae8 8944 3206 f043
00000070: 9f64 3641 edd9 8841 92b5 ce43 e10c cc43

down_blocks.2.norm2.weight f4 [32]
1.2473086 0.8686042 0.40381318 1.2867826 1.9637598 0.2720074 0.67414325 0.55139774
-0.09244945 1.1968341 0.5864217 1.5303345 1.0385753 0.73773324 1.1357397 1.1554608
1.3489627 1.0560843 0.9574189 1.9333559 1.3842444 0.5490719 0.41500312 1.1626123
1.4347067 1.8705367 0.8902486 1.0122465 0.88756293 0.3354134 1.0567336 1.4280088
00000000: cfa7 9f3f d85c 5e3f 9ac0 ce3e 4bb5 a43f
00000010: 7b5c fb3f 8e44 8b3e a794 2c3f 6728 0d3f
00000020: 2356 bdbd dc31 993f bc1f 163f 00e2 c33f
00000030: 09f0 843f 16dc 3c3f eb5f 913f 24e6 933f
00000040: cfaa ac3f c52d 873f 6819 753f 3578 f73f
00000050: ec2e b13f fa8f 0c3f 4a7b d43e 7bd0 943f
00000060: 78a4 b73f bf6d ef3f 55e7 633f 4b91 813f
00000070: 5337 633f 4ebb ab3e 0c43 873f fec8 b63f

down_blocks.2.norm2.bias f4 [32]
-0.5968538 -0.039576463 0.249646 0.021819219 -0.5954698 0.11642197 0.39196834 -0.0371485
-0.07440293 -0.20218761 0.25151587 0.6053294 0.2330192 -0.30151638 0.19864394 0.22412072
0.12637113 -0.19555096 0.037650533 -1.1043484 0.08111598 -0.05647217 0.121494815 -0.31697434
-0.41234106 -0.6069402 0.08882272 -0.16967694 0.02928627 0.16268194 -1.0066761 -0.6120528
00000000: 69cb 18bf ee1a 22bd 33a3 7f3e 38be b23c
00000010: b570 18bf a46e ee3d 13b0 c83e 0729 18bd
00000020: 9060 98bd 450a 4fbe b0c6 803e def6 1a3f
00000030: 969c 6e3e 5b60 9abe 5169 4b3e e77f 653e
00000040: 6f67 013e 833e 48be 7237 1a3d 4a5b 8dbf
00000050: 2320 a63d 5d4f 67bd 46d2 f83d 764a a2be
00000060: 5e1e d3be 6f60 1bbf b0e8 b53d cbbf 2dbe
00000070: c2e9 ef3c 1896 263e c3da 80bf 7eaf 1cbf

down_blocks.2.norm2.running_mean f4 [32]
86.76983 57.45616 41.566513 2.0862398 10.920854 6.7062783 6.7957735 7.7455287
1.4686887 2.234472 2.3102608 2.9126294 24.712614 2.551109 22.445244 4.579927
9.372354 2.2059278 21.48227 10.763854 4.4814377 5.894613 43.68195 4.186966
65.98805 7.707168 9.026706 5.8206983 2.7123284 33.50636 6.814756 59.475048
00000000: 278a ad42 1cd3 6542 1c44 2642 f484 0540
00000010: d1bb 2e41 d599 d640 fa76 d940 5fdb f740
00000020: fefd bb3f 9701 0f40 50db 1340 8568 3a40
00000030: 6fb3 c541 5f45 2340 dc8f b341 c38e 9240
00000040: 29f5 1541 ec2d 0d40 b0db ab41 bf38 2c41
00000050: f067 8f40 aba0 bc40 51ba 2e42 a0fb 8540
00000060: e2f9 8342 1fa1 f640 636d 1041 2943 ba40
00000070: ca96 2d40 8306 0642 7b12 da40 73e6 6d42

down_blocks.2.norm2.running_var f4 [32]
1504.4806 1106.943 544.15894 569.39886 2852.7273 1493.6572 600.8124 65.85882
161.36292 471.76004 223.59958 613.4827 282.08585 360.9354 562.4785 476.77814
541.4668 444.22794 1440.2603 562.1374 520.49396 305.3426 677.9743 507.87265
1429.1222 1733.5494 3171.3044 619.52856 224.6793 479.5212 1996.2944 1137.0
00000000: 610f bc44 2d5e 8a44 2c0a 0844 8759 0e44
00000010: a34b 3245 08b5 ba44 fe33 1644 b7b7 8342
00000020: e85c 2143 49e1 eb43 7e99 5f43 e55e 1944
00000030: fd0a 8d43 bb77 b443 a09e 0c44 9a63 ee43
00000040: e05d 0744 2d1d de43 5408 b444 cb88 0c44
00000050: 9d1f 0244 daab 9843 5b7e 2944 b3ef fd43
00000060: e9a3 b244 95b1 d844 df34 4645 d4e1 1a44
00000070: e7ad 6043 b7c2 ef43 6c89 f944 0020 8e44
